…
        min_scale: 0.3
        max_scale: 1
        min_aspect_ratio: 0.5
        max_aspect_ratio: 2
      }
      sample_constraint {
        min_jaccard_overlap: 0.9
      }
      max_sample: 1
      max_trials: 50
    }
    batch_sampler {
      sampler {
        min_scale: 0.3
        max_scale: 1
        min_aspect_ratio: 0.5
        max_aspect_ratio: 2
      }
      sample_constraint {
        max_jaccard_overlap: 1
      }
      max_sample: 1
      max_trials: 50
    }
    label_map_file: "/home/pinchen/ssd/caffe/data/PlateDetection/labelmap.prototxt"
  }
}
layer {
  name: "conv1_1"
  type: "Convolution"
  bottom: "data"
  top: "conv1_1"
  param {
    lr_mult: 1
    decay_mult: 1
  }
  param {
    lr_mult: 2
    decay_mult: 0
  }
  convolution_param {
    num_output: 64
    pad: 1
    kernel_size: 3
    weight_filler {
      type: "xavier"
    }
    bias_filler {
      type: "constant"
      value: 0
    }
  }
}
layer {
  name: "relu1_1"
  type: "ReLU"
  bottom: "conv1_1"
  top: "conv1_1"
}
layer {
  name: "conv1_2"
  type: "Convolution"
  bottom: "conv1_1"
  top: "conv1_2"
  param {
    lr_mult: 1
    decay_mult: 1
  }
  param {
    lr_mult: 2
    decay_mult: 0
  }
  convolution_param {
    num_output: 64
    pad: 1
    kernel_size: 3
    weight_filler {
      type: "xavier"
    }
    bias_filler {
      type: "constant"
      value: 0
    }
  }
}
layer {
  name: "relu1_2"
  type: "ReLU"
  bottom: "conv1_2"
  top: "conv1_2"
}
layer {
  name: "pool1"
  type: "Pooling"
  bottom: "conv1_2"
  top: "pool1"
  pooling_param {
    pool: MAX
    kernel_size: 2
    stride: 2
  }
}
layer {
  name: "conv2_1"
  type: "Convolution"
  bottom: "pool1"
  top: "conv2_1"
  param {
    lr_mult: 1
    decay_mult: 1
  }
  param {
    lr_mult: 2
    decay_mult: 0
  }
  convolution_param {
    num_output: 128
    pad: 1
    kernel_size: 3
    weight_filler {
      type: "xavier"
    }
    bias_filler {
      type: "constant"
      value: 0
    }
  }
}
layer {
  name: "relu2_1"
  type: "ReLU"
  bottom: "conv2_1"
  top: "conv2_1"
}
layer {
  name: "conv2_2"
  type: "Convolution"
  bottom: "conv2_1"
  top: "conv2_2"
  param {
    lr_mult: 1
    decay_mult: 1
  }
  param {
    lr_mult: 2
    decay_mult: 0
  }
  convolution_param {
    num_output: 128
    pad: 1
    kernel_size: 3
    weight_filler {
      type: "xavier"
    }
    bias_filler {
      type: "constant"
      value: 0
    }
  }
}
layer {
  name: "relu2_2"
  type: "ReLU"
  bottom: "conv2_2"
  top: "conv2_2"
}
layer {
  name: "pool2"
  type: "Pooling"
  bottom: "conv2_2"
  top: "pool2"
  pooling_param {
    pool: MAX
    kernel_size: 2
    stride: 2
  }
}
layer {
  name: "conv3_1"
  type: "Convolution"
  bottom: "pool2"
  top: "conv3_1"
  param {
    lr_mult: 1
    decay_mult: 1
  }
  param {
    lr_mult: 2
    decay_mult: 0
  }
  convolution_param {
    num_output: 256
    pad: 1
    kernel_size: 3
    weight_filler {
      type: "xavier"
    }
    bias_filler {
      type: "constant"
      value: 0
    }
  }
}
layer {
  name: "relu3_1"
  type: "ReLU"
  bottom: "conv3_1"
  top: "conv3_1"
}
layer {
  name: "conv3_2"
  type: "Convolution"
  bottom: "conv3_1"
  top: "conv3_2"
  param {
    lr_mult: 1
    decay_mult: 1
  }
  param {
    lr_mult: 2
    decay_mult: 0
  }
  convolution_param {
    num_output: 256
    pad: 1
    kernel_size: 3
    weight_filler {
      type: "xavier"
    }
    bias_filler {
      type: "constant"
      value: 0
    }
  }
}
layer {
  name: "relu3_2"
  type: "ReLU"
  bottom: "conv3_2"
  top: "conv3_2"
}
layer {
  name: "conv3_3"
  type: "Convolution"
  bottom: "conv3_2"
  top: "conv3_3"
  param {
    lr_mult: 1
    decay_mult: 1
  }
  param {
    lr_mult: 2
    decay_mult: 0
  }
  convolution_param {
    num_output: 256
    pad: 1
    kernel_size: 3
    weight_filler {
      type: "xavier"
    }
    bias_filler {
      type: "constant"
      value: 0
    }
  }
}
layer {
  name: "relu3_3"
  type: "ReLU"
  bottom: "conv3_3"
  top: "conv3_3"
}
layer {
  name: "pool3"
  type: "Pooling"
  bottom: "conv3_3"
  top: "pool3"
  pooling_param {
    pool: MAX
    kernel_size: 2
    stride: 2
  }
}
layer {
  name: "conv4_1"
  type: "Convolution"
  bottom: "pool3"
  top: "conv4_1"
  param {
    lr_mult: 1
    decay_mult: 1
  }
  param {
    lr_mult: 2
    decay_mult: 0
  }
  convolution_param {
    num_output: 512
    pad: 1
    kernel_size: 3
    weight_filler {
      type: "xavier"
    }
    bias_filler {
      type: "constant"
      value: 0
    }
  }
}
layer {
  name: "relu4_1"
  type: "ReLU"
  bottom: "conv4_1"
  top: "conv4_1"
}
layer {
  name: "conv4_2"
  type: "Convolution"
  bottom: "conv4_1"
  top: "conv4_2"
  param {
    lr_mult: 1
    decay_mult: 1
  }
  param {
    lr_mult: 2
    decay_mult: 0
  }
  convolution_param {
    num_output: 512
    pad: 1
    kernel_size: 3
    weight_filler {
      type: "xavier"
    }
    bias_filler {
      type: "constant"
      value: 0
    }
  }
}
layer {
  name: "relu4_2"
  type: "ReLU"
  bottom: "conv4_2"
  top: "conv4_2"
}
layer {
  name: "conv4_3"
  type: "Convolution"
  bottom: "conv4_2"
  top: "conv4_3"
  param {
    lr_mult: 1
    decay_mult: 1
  }
  param {
    lr_mult: 2
    decay_mult: 0
  }
  convolution_param {
    num_output: 512
    pad: 1
    kernel_size: 3
    weight_filler {
      type: "xavier"
    }
    bias_filler {
      type: "constant"
      value: 0
    }
  }
}
layer {
  name: "relu4_3"
  type: "ReLU"
  bottom: "conv4_3"
  top: "conv4_3"
}
layer {
  name: "pool4"
  type: "Pooling"
  bottom: "conv4_3"
  top: "pool4"
  pooling_param {
    pool: MAX
    kernel_size: 2
    stride: 2
  }
}
layer {
  name: "conv5_1"
  type: "Convolution"
  bottom: "pool4"
  top: "conv5_1"
  param {
    lr_mult: 1
    decay_mult: 1
  }
  param {
    lr_mult: 2
    decay_mult: 0
  }
  convolution_param {
    num_output: 512
    pad: 1
    kernel_size: 3
    weight_filler {
      type: "xavier"
    }
    bias_filler {
      type: "constant"
      value: 0
    }
    dilation: 1
  }
}
layer {
  name: "relu5_1"
  type: "ReLU"
  bottom: "conv5_1"
  top: "conv5_1"
}
layer {
  name: "conv5_2"
  type: "Convolution"
  bottom: "conv5_1"
  top: "conv5_2"
  param {
    lr_mult: 1
    decay_mult: 1
  }
  param {
    lr_mult: 2
    decay_mult: 0
  }
  convolution_param {
    num_output: 512
    pad: 1
    kernel_size: 3
    weight_filler {
      type: "xavier"
    }
    bias_filler {
      type: "constant"
      value: 0
    }
    dilation: 1
  }
}
layer {
  name: "relu5_2"
  type: "ReLU"
  bottom: "conv5_2"
  top: "conv5_2"
}
layer {
  name: "conv5_3"
  type: "Convolution"
  bottom: "conv5_2"
  top: "conv5_3"
  param {
    lr_mult: 1
    decay_mult: 1
  }
  param {
    lr_mult: 2
    decay_mult: 0
  }
  convolution_param {
    num_output: 512
    pad: 1
    kernel_size: 3
    weight_filler {
      type: "xavier"
    }
    bias_filler {
      type: "constant"
      value: 0
    }
    dilation: 1
  }
}
layer {
  name: "relu5_3"
  type: "ReLU"
  bottom: "conv5_3"
  top: "conv5_3"
}
layer {
  name: "pool5"
  type: "Pooling"
  bottom: "conv5_3"
  top: "pool5"
  pooling_param {
    pool: MAX
    kernel_size: 3
    stride: 1
    pad: 1
  }
}
layer {
  name: "fc6"
  type: "Convolution"
  bottom: "pool5"
  top: "fc6"
  param {
    lr_mult: 1
    decay_mult: 1
  }
  param {
    lr_mult: 2
    decay_mult: 0
  }
  convolution_param {
    num_output: 1024
    pad: 6
    kernel_size: 3
    weight_filler {
      type: "xavier"
    }
    bias_filler {
      type: "constant"
      value: 0
    }
    dilation: 6
  }
}
layer {
  name: "relu6"
  type: "ReLU"
  bottom: "fc6"
  top: "fc6"
}
layer {
  name: "fc7"
  type: "Convolution"
  bottom: "fc6"
  top: "fc7"
  param {
    lr_mult: 1
    decay_mult: 1
  }
  param {
    lr_mult: 2
    decay_mult: 0
  }
  convolution_param {
    num_output: 1024
    kernel_size: 1
    weight_filler {
      type: "xavier"
    }
    bias_filler {
      type: "constant"
      value: 0
    }
  }
}
layer {
  name: "relu7"
  type: "ReLU"
  bottom: "fc7"
  top: "fc7"
}
layer {
  name: "conv6_1"
  type: "Convolution"
  bottom: "fc7"
  top: "conv6_1"
  param {
    lr_mult: 1
    decay_mult: 1
  }
  param {
    lr_mult: 2
    decay_mult: 0
  }
  convolution_param {
    num_output: 256
    pad: 0
    kernel_size: 1
    stride: 1
    weight_filler {
      type: "xavier"
    }
    bias_filler {
      type: "constant"
      value: 0
    }
  }
}
layer {
  name: "conv6_1_relu"
  type: "ReLU"
  bottom: "conv6_1"
  top: "conv6_1"
}
layer {
  name: "conv6_2"
  type: "Convolution"
  bottom: "conv6_1"
  top: "conv6_2"
  param {
    lr_mult: 1
    decay_mult: 1
  }
  param {
    lr_mult: 2
    decay_mult: 0
  }
  convolution_param {
    num_output: 512
    pad: 1
    kernel_size: 3
    stride: 2
    weight_filler {
      type: "xavier"
    }
    bias_filler {
      type: "constant"
      value: 0
    }
  }
}
layer {
  name: "conv6_2_relu"
  type: "ReLU"
  bottom: "conv6_2"
  top: "conv6_2"
}
layer {
  name: "conv7_1"
  type: "Convolution"
  bottom: "conv6_2"
  top: "conv7_1"
  param {
    lr_mult: 1
    decay_mult: 1
  }
  param {
    lr_mult: 2
    decay_mult: 0
  }
  convolution_param {
    num_output: 128
    pad: 0
    kernel_size: 1
    stride: 1
    weight_filler {
      type: "xavier"
    }
    bias_filler {
      type: "constant"
      value: 0
    }
  }
}
layer {
  name: "conv7_1_relu"
  type: "ReLU"
  bottom: "conv7_1"
  top: "conv7_1"
}
layer {
  name: "conv7_2"
  type: "Convolution"
  bottom: "conv7_1"
  top: "conv7_2"
  param {
    lr_mult: 1
    decay_mult: 1
  }
  param {
    lr_mult: 2
    decay_mult: 0
  }
  convolution_param {
    num_output: 256
    pad: 1
    kernel_size: 3
    stride: 2
    weight_filler {
      type: "xavier"
    }
    bias_filler {
      type: "constant"
      value: 0
    }
  }
}
layer {
  name: "conv7_2_relu"
  type: "ReLU"
  bottom: "conv7_2"
  top: "conv7_2"
}
layer {
  name: "conv8_1"
  type: "Convolution"
  bottom: "conv7_2"
  top: "conv8_1"
  param {
    lr_mult: 1
    decay_mult: 1
  }
  param {
    lr_mult: 2
    decay_mult: 0
  }
  convolution_param {
    num_output: 128
    pad: 0
    kernel_size: 1
    stride: 1
    weight_filler {
      type: "xavier"
    }
    bias_filler {
      type: "constant"
      value: 0
    }
  }
}
layer {
  name: "conv8_1_relu"
  type: "ReLU"
  bottom: "conv8_1"
  top: "conv8_1"
}
layer {
  name: "conv8_2"
  type: "Convolution"
  bottom: "conv8_1"
  top: "conv8_2"
  param {
    lr_mult: 1
    decay_mult: 1
  }
  param {
    lr_mult: 2
    decay_mult: 0
  }
  convolution_param {
    num_output: 256
    pad: 0
    kernel_size: 3
    stride: 1
    weight_filler {
      type: "xavier"
    }
    bias_filler {
      type: "constant"
      value: 0
    }
  }
}
layer {
  name: "conv8_2_relu"
  type: "ReLU"
  bottom: "conv8_2"
  top: "conv8_2"
}
layer {
  name: "conv9_1"
  type: "Convolution"
  bottom: "conv8_2"
  top: "conv9_1"
  param {
    lr_mult: 1
    decay_mult: 1
  }
  param {
    lr_mult: 2
    decay_mult: 0
  }
  convolution_param {
    num_output: 128
    pad: 0
    kernel_size: 1
    stride: 1
    weight_filler {
      type: "xavier"
    }
    bias_filler {
      type: "constant"
      value: 0
    }
  }
}
layer {
  name: "conv9_1_relu"
  type: "ReLU"
  bottom: "conv9_1"
  top: "conv9_1"
}
layer {
  name: "conv9_2"
  type: "Convolution"
  bottom: "conv9_1"
  top: "conv9_2"
  param {
    lr_mult: 1
    decay_mult: 1
  }
  param {
    lr_mult: 2
    decay_mult: 0
  }
  convolution_param {
    num_output: 256
    pad: 0
    kernel_size: 3
    stride: 1
    weight_filler {
      type: "xavier"
    }
    bias_filler {
      type: "constant"
      value: 0
    }
  }
}
layer {
  name: "conv9_2_relu"
  type: "ReLU"
  bottom: "conv9_2"
  top: "conv9_2"
}
layer {
  name: "conv4_3_norm"
  type: "Normalize"
  bottom: "conv4_3"
  top: "conv4_3_norm"
  norm_param {
    across_spatial: false
    scale_filler {
      type: "constant"
      value: 20
    }
    channel_shared: false
  }
}
layer {
  name: "conv4_3_norm_mbox_loc"
  type: "Convolution"
  bottom: "conv4_3_norm"
  top: "conv4_3_norm_mbox_loc"
  param {
    lr_mult: 1
    decay_mult: 1
  }
  param {
    lr_mult: 2
    decay_mult: 0
  }
  convolution_param {
    num_output: 16
    pad: 1
    kernel_size: 3
    stride: 1
    weight_filler {
      type: "xavier"
    }
    bias_filler {
      type: "constant"
      value: 0
    }
  }
}
layer {
  name: "conv4_3_norm_mbox_loc_perm"
  type: "Permute"
  bottom: "conv4_3_norm_mbox_loc"
  top: "conv4_3_norm_mbox_loc_perm"
  permute_param {
    order: 0
    order: 2
    order: 3
    order: 1
  }
}
layer {
  name: "conv4_3_norm_mbox_loc_flat"
  type: "Flatten"
  bottom: "conv4_3_norm_mbox_loc_perm"
  top: "conv4_3_norm_mbox_loc_flat"
  flatten_param {
    axis: 1
  }
}
layer {
  name: "conv4_3_norm_mbox_conf"
  type: "Convolution"
  bottom: "conv4_3_norm"
  top: "conv4_3_norm_mbox_conf"
  param {
    lr_mult: 1
    decay_mult: 1
  }
  param {
    lr_mult: 2
    decay_mult: 0
  }
  convolution_param {
    num_output: 8
    pad: 1
    kernel_size: 3
    stride: 1
    weight_filler {
      type: "xavier"
    }
    bias_filler {
      type: "constant"
      value: 0
    }
  }
}
layer {
  name: "conv4_3_norm_mbox_conf_perm"
  type: "Permute"
  bottom: "conv4_3_norm_mbox_conf"
  top: "conv4_3_norm_mbox_conf_perm"
  permute_param {
    order: 0
    order: 2
    order: 3
    order: 1
  }
}
layer {
  name: "conv4_3_norm_mbox_conf_flat"
  type: "Flatten"
  bottom: "conv4_3_norm_mbox_conf_perm"
  top: "conv4_3_norm_mbox_conf_flat"
  flatten_param {
    axis: 1
  }
}
layer {
  name: "conv4_3_norm_mbox_priorbox"
  type: "PriorBox"
  bottom: "conv4_3_norm"
  bottom: "data"
  top: "conv4_3_norm_mbox_priorbox"
  prior_box_param {
    min_size: 30
    max_size: 60
    aspect_ratio: 2
    flip: true
    clip: false
    variance: 0.1
    variance: 0.1
    variance: 0.2
    variance: 0.2
    step: 8
    offset: 0.5
  }
}
layer {
  name: "fc7_mbox_loc"
  type: "Convolution"
  bottom: "fc7"
  top: "fc7_mbox_loc"
  param {
    lr_mult: 1
    decay_mult: 1
  }
  param {
    lr_mult: 2
    decay_mult: 0
  }
  convolution_param {
    num_output: 24
    pad: 1
    kernel_size: 3
    stride: 1
    weight_filler {
      type: "xavier"
    }
    bias_filler {
      type: "constant"
      value: 0
    }
  }
}
layer {
  name: "fc7_mbox_loc_perm"
  type: "Permute"
  bottom: "fc7_mbox_loc"
  top: "fc7_mbox_loc_perm"
  permute_param {
    order: 0
    order: 2
    order: 3
    order: 1
  }
}
layer {
  name: "fc7_mbox_loc_flat"
  type: "Flatten"
  bottom: "fc7_mbox_loc_perm"
  top: "fc7_mbox_loc_flat"
  flatten_param {
    axis: 1
  }
}
layer {
  name: "fc7_mbox_conf"
  type: "Convolution"
  bottom: "fc7"
  top: "fc7_mbox_conf"
  param {
    lr_mult: 1
    decay_mult: 1
  }
  param {
    lr_mult: 2
    decay_mult: 0
  }
  convolution_param {
    num_output: 12
    pad: 1
    kernel_size: 3
    stride: 1
    weight_filler {
      type: "xavier"
    }
    bias_filler {
      type: "constant"
      value: 0
    }
  }
}
layer {
  name: "fc7_mbox_conf_perm"
  type: "Permute"
  bottom: "fc7_mbox_conf"
  top: "fc7_mbox_conf_perm"
  permute_param {
    order: 0
    order: 2
    order: 3
    order: 1
  }
}
layer {
  name: "fc7_mbox_conf_flat"
  type: "Flatten"
  bottom: "fc7_mbox_conf_perm"
  top: "fc7_mbox_conf_flat"
  flatten_param {
    axis: 1
  }
}
layer {
  name: "fc7_mbox_priorbox"
  type: "PriorBox"
  bottom: "fc7"
  bottom: "data"
  top: "fc7_mbox_priorbox"
  prior_box_param {
    min_size: 60
    max_size: 111
    aspect_ratio: 2
    aspect_ratio: 3
    flip: true
    clip: false
    variance: 0.1
    variance: 0.1
    variance: 0.2
    variance: 0.2
    step: 16
    offset: 0.5
  }
}
layer {
  name: "conv6_2_mbox_loc"
  type: "Convolution"
  bottom: "conv6_2"
  top: "conv6_2_mbox_loc"
  param {
    lr_mult: 1
    decay_mult: 1
  }
  param {
    lr_mult: 2
    decay_mult: 0
  }
  convolution_param {
    num_output: 24
    pad: 1
    kernel_size: 3
    stride: 1
    weight_filler {
      type: "xavier"
    }
    bias_filler {
      type: "constant"
      value: 0
    }
  }
}
layer {
  name: "conv6_2_mbox_loc_perm"
  type: "Permute"
  bottom: "conv6_2_mbox_loc"
  top: "conv6_2_mbox_loc_perm"
  permute_param {
    order: 0
    order: 2
    order: 3
    order: 1
  }
}
layer {
  name: "conv6_2_mbox_loc_flat"
  type: "Flatten"
  bottom: "conv6_2_mbox_loc_perm"
  top: "conv6_2_mbox_loc_flat"
  flatten_param {
    axis: 1
  }
}
layer {
  name: "conv6_2_mbox_conf"
  type: "Convolution"
  bottom: "conv6_2"
  top: "conv6_2_mbox_conf"
  param {
    lr_mult: 1
    decay_mult: 1
  }
  param {
    lr_mult: 2
    decay_mult: 0
  }
  convolution_param {
    num_output: 12
    pad: 1
    kernel_size: 3
    stride: 1
    weight_filler {
      type: "xavier"
    }
    bias_filler {
      type: "constant"
      value: 0
    }
  }
}
layer {
  name: "conv6_2_mbox_conf_perm"
  type: "Permute"
  bottom: "conv6_2_mbox_conf"
  top: "conv6_2_mbox_conf_perm"
  permute_param {
    order: 0
    order: 2
    order: 3
    order: 1
  }
}
layer {
  name: "conv6_2_mbox_conf_flat"
  type: "Flatten"
  bottom: "conv6_2_mbox_conf_perm"
  top: "conv6_2_mbox_conf_flat"
  flatten_param {
    axis: 1
  }
}
layer {
  name: "conv6_2_mbox_priorbox"
  type: "PriorBox"
  bottom: "conv6_2"
  bottom: "data"
  top: "conv6_2_mbox_priorbox"
  prior_box_param {
    min_size: 111
    max_size: 162
    aspect_ratio: 2
    aspect_ratio: 3
    flip: true
    clip: false
    variance: 0.1
    variance: 0.1
    variance: 0.2
    variance: 0.2
    step: 32
    offset: 0.5
  }
}
layer {
  name: "conv7_2_mbox_loc"
  type: "Convolution"
  bottom: "conv7_2"
  top: "conv7_2_mbox_loc"
  param {
    lr_mult: 1
    decay_mult: 1
  }
  param {
    lr_mult: 2
    decay_mult: 0
  }
  convolution_param {
    num_output: 24
    pad: 1
    kernel_size: 3
    stride: 1
    weight_filler {
      type: "xavier"
    }
    bias_filler {
      type: "constant"
      value: 0
    }
  }
}
layer {
  name: "conv7_2_mbox_loc_perm"
  type: "Permute"
  bottom: "conv7_2_mbox_loc"
  top: "conv7_2_mbox_loc_perm"
  permute_param {
    order: 0
    order: 2
    order: 3
    order: 1
  }
}
layer {
  name: "conv7_2_mbox_loc_flat"
  type: "Flatten"
  bottom: "conv7_2_mbox_loc_perm"
  top: "conv7_2_mbox_loc_flat"
  flatten_param {
    axis: 1
  }
}
layer {
  name: "conv7_2_mbox_conf"
  type: "Convolution"
  bottom: "conv7_2"
  top: "conv7_2_mbox_conf"
  param {
    lr_mult: 1
    decay_mult: 1
  }
  param {
    lr_mult: 2
    decay_mult: 0
  }
  convolution_param {
    num_output: 12
    pad: 1
    kernel_size: 3
    stride: 1
    weight_filler {
      type: "xavier"
    }
    bias_filler {
      type: "constant"
      value: 0
    }
  }
}
layer {
  name: "conv7_2_mbox_conf_perm"
  type: "Permute"
  bottom: "conv7_2_mbox_conf"
  top: "conv7_2_mbox_conf_perm"
  permute_param {
    order: 0
    order: 2
    order: 3
    order: 1
  }
}
layer {
  name: "conv7_2_mbox_conf_flat"
  type: "Flatten"
  bottom: "conv7_2_mbox_conf_perm"
  top: "conv7_2_mbox_conf_flat"
  flatten_param {
    axis: 1
  }
}
layer {
  name: "conv7_2_mbox_priorbox"
  type: "PriorBox"
  bottom: "conv7_2"
  bottom: "data"
  top: "conv7_2_mbox_priorbox"
  prior_box_param {
    min_size: 162
    max_size: 213
    aspect_ratio: 2
    aspect_ratio: 3
    flip: true
    clip: false
    variance: 0.1
    variance: 0.1
    variance: 0.2
    variance: 0.2
    step: 64
    offset: 0.5
  }
}
layer {
  name: "conv8_2_mbox_loc"
  type: "Convolution"
  bottom: "conv8_2"
  top: "conv8_2_mbox_loc"
  param {
    lr_mult: 1
    decay_mult: 1
  }
  param {
    lr_mult: 2
    decay_mult: 0
  }
  convolution_param {
    num_output: 16
    pad: 1
    kernel_size: 3
    stride: 1
    weight_filler {
      type: "xavier"
    }
    bias_filler {
      type: "constant"
      value: 0
    }
  }
}
layer {
  name: "conv8_2_mbox_loc_perm"
  type: "Permute"
  bottom: "conv8_2_mbox_loc"
  top: "conv8_2_mbox_loc_perm"
  permute_param {
    order: 0
    order: 2
    order: 3
    order: 1
  }
}
layer {
  name: "conv8_2_mbox_loc_flat"
  type: "Flatten"
  bottom: "conv8_2_mbox_loc_perm"
  top: "conv8_2_mbox_loc_flat"
  flatten_param {
    axis: 1
  }
}
layer {
  name: "conv8_2_mbox_conf"
  type: "Convolution"
  bottom: "conv8_2"
  top: "conv8_2_mbox_conf"
  param {
    lr_mult: 1
    decay_mult: 1
  }
  param {
    lr_mult: 2
    decay_mult: 0
  }
  convolution_param {
    num_output: 8
    pad: 1
    kernel_size: 3
    stride: 1
    weight_filler {
      type: "xavier"
    }
    bias_filler {
      type: "constant"
      value: 0
    }
  }
}
layer {
  name: "conv8_2_mbox_conf_perm"
  type: "Permute"
  bottom: "conv8_2_mbox_conf"
  top: "conv8_2_mbox_conf_perm"
  permute_param {
    order: 0
    order: 2
    order: 3
    order: 1
  }
}
layer {
  name: "conv8_2_mbox_conf_flat"
  type: "Flatten"
  bottom: "conv8_2_mbox_conf_perm"
  top: "conv8_2_mbox_conf_flat"
  flatten_param {
    axis: 1
  }
}
layer {
  name: "conv8_2_mbox_priorbox"
  type: "PriorBox"
  bottom: "conv8_2"
  bottom: "data"
  top: "conv8_2_mbox_priorbox"
  prior_box_param {
    min_size: 213
    max_size: 264
    aspect_ratio: 2
    flip: true
    clip: false
    variance: 0.1
    variance: 0.1
    variance: 0.2
    variance: 0.2
    step: 100
    offset: 0.5
  }
}
layer {
  name: "conv9_2_mbox_loc"
  type: "Convolution"
  bottom: "conv9_2"
  top: "conv9_2_mbox_loc"
  param {
    lr_mult: 1
    decay_mult: 1
  }
  param {
    lr_mult: 2
    decay_mult: 0
  }
  convolution_param {
    num_output: 16
    pad: 1
    kernel_size: 3
    stride: 1
    weight_filler {
      type: "xavier"
    }
    bias_filler {
      type: "constant"
      value: 0
    }
  }
}
layer {
  name: "conv9_2_mbox_loc_perm"
  type: "Permute"
  bottom: "conv9_2_mbox_loc"
  top: "conv9_2_mbox_loc_perm"
  permute_param {
    order: 0
    order: 2
    order: 3
    order: 1
  }
}
layer {
  name: "conv9_2_mbox_loc_flat"
  type: "Flatten"
  bottom: "conv9_2_mbox_loc_perm"
  top: "conv9_2_mbox_loc_flat"
  flatten_param {
    axis: 1
  }
}
layer {
  name: "conv9_2_mbox_conf"
  type: "Convolution"
  bottom: "conv9_2"
  top: "conv9_2_mbox_conf"
  param {
    lr_mult: 1
    decay_mult: 1
  }
  param {
    lr_mult: 2
    decay_mult: 0
  }
  convolution_param {
    num_output: 8
    pad: 1
    kernel_size: 3
    stride: 1
    weight_filler {
      type: "xavier"
    }
    bias_filler {
      type: "constant"
      value: 0
    }
  }
}
layer {
  name: "conv9_2_mbox_conf_perm"
  type: "Permute"
  bottom: "conv9_2_mbox_conf"
  top: "conv9_2_mbox_conf_perm"
  permute_param {
    order: 0
    order: 2
    order: 3
    order: 1
  }
}
layer {
  name: "conv9_2_mbox_conf_flat"
  type: "Flatten"
  bottom: "conv9_2_mbox_conf_perm"
  top: "conv9_2_mbox_conf_flat"
  flatten_param {
    axis: 1
  }
}
layer {
  name: "conv9_2_mbox_priorbox"
  type: "PriorBox"
  bottom: "conv9_2"
  bottom: "data"
  top: "conv9_2_mbox_priorbox"
  prior_box_param {
    min_size: 264
    max_size: 315
    aspect_ratio: 2
    flip: true
    clip: false
    variance: 0.1
    variance: 0.1
    variance: 0.2
    variance: 0.2
    step: 300
    offset: 0.5
  }
}
layer {
  name: "mbox_loc"
  type: "Concat"
  bottom: "conv4_3_norm_mbox_loc_flat"
  bottom: "fc7_mbox_loc_flat"
  bottom: "conv6_2_mbox_loc_flat"
  bottom: "conv7_2_mbox_loc_flat"
  bottom: "conv8_2_mbox_loc_flat"
  bottom: "conv9_2_mbox_loc_flat"
  top: "mbox_loc"
  concat_param {
    axis: 1
  }
}
layer {
  name: "mbox_conf"
  type: "Concat"
  bottom: "conv4_3_norm_mbox_conf_flat"
  bottom: "fc7_mbox_conf_flat"
  bottom: "conv6_2_mbox_conf_flat"
  bottom: "conv7_2_mbox_conf_flat"
  bottom: "conv8_2_mbox_conf_flat"
  bottom: "conv9_2_mbox_conf_flat"
  top: "mbox_conf"
  concat_param {
    axis: 1
  }
}
layer {
  name: "mbox_priorbox"
  type: "Concat"
  bottom: "conv4_3_norm_mbox_priorbox"
  bottom: "fc7_mbox_priorbox"
  bottom: "conv6_2_mbox_priorbox"
  bottom: "conv7_2_mbox_priorbox"
  bottom: "conv8_2_mbox_priorbox"
  bottom: "conv9_2_mbox_priorbox"
  top: "mbox_priorbox"
  concat_param {
    axis: 2
  }
}
layer {
  name: "mbox_loss"
  type: "MultiBoxLoss"
  bottom: "mbox_loc"
  bottom: "mbox_conf"
  bottom: "mbox_priorbox"
  bottom: "label"
  top: "mbox_loss"
  include {
    phase: TRAIN
  }
  propagate_down: true
  propagate_down: true
  propagate_down: false
  propagate_down: false
  loss_param {
    normalization: VALID
  }
  multibox_loss_param {
    loc_loss_type: SMOOTH_L1
    conf_loss_type: SOFTMAX
    loc_weight: 1
    num_classes: 2
    share_location: true
    match_type: PER_PREDICTION
    overlap_threshold: 0.5
    use_prior_for_matching: true
    background_label_id: 0
    use_difficult_gt: true
    neg_pos_ratio: 3
    neg_overlap: 0.5
    code_type: CENTER_SIZE
    ignore_cross_boundary_bbox: false
    mining_type: MAX_NEGATIVE
  }
}
I0329 19:57:21.693162 12993 layer_factory.hpp:77] Creating layer data
I0329 19:57:21.694036 12993 net.cpp:100] Creating Layer data
I0329 19:57:21.694108 12993 net.cpp:408] data -> data
I0329 19:57:21.694217 12993 net.cpp:408] data -> label
I0329 19:57:21.696285 13003 db_lmdb.cpp:35] Opened lmdb /home/pinchen/ssd/caffe/data/PlateDetection/lmdb/PlateDetection_trainval_lmdb
I0329 19:57:21.741140 12993 annotated_data_layer.cpp:62] output data size: 8,3,512,512
I0329 19:57:21.806402 12993 net.cpp:150] Setting up data
I0329 19:57:21.806536 12993 net.cpp:157] Top shape: 8 3 512 512 (6291456)
I0329 19:57:21.806557 12993 net.cpp:157] Top shape: 1 1 1 8 (8)
I0329 19:57:21.806573 12993 net.cpp:165] Memory required for data: 25165856
I0329 19:57:21.806613 12993 layer_factory.hpp:77] Creating layer data_data_0_split
I0329 19:57:21.806653 12993 net.cpp:100] Creating Layer data_data_0_split
I0329 19:57:21.806675 12993 net.cpp:434] data_data_0_split <- data
I0329 19:57:21.806708 12993 net.cpp:408] data_data_0_split -> data_data_0_split_0
I0329 19:57:21.806740 12993 net.cpp:408] data_data_0_split -> data_data_0_split_1
I0329 19:57:21.806761 12993 net.cpp:408] data_data_0_split -> data_data_0_split_2
I0329 19:57:21.806785 12993 net.cpp:408] data_data_0_split -> data_data_0_split_3
I0329 19:57:21.806805 12993 net.cpp:408] data_data_0_split -> data_data_0_split_4
I0329 19:57:21.806825 12993 net.cpp:408] data_data_0_split -> data_data_0_split_5
I0329 19:57:21.806844 12993 net.cpp:408] data_data_0_split -> data_data_0_split_6
I0329 19:57:21.806994 12993 net.cpp:150] Setting up data_data_0_split
I0329 19:57:21.807015 12993 net.cpp:157] Top shape: 8 3 512 512 (6291456)
I0329 19:57:21.807034 12993 net.cpp:157] Top shape: 8 3 512 512 (6291456)
I0329 19:57:21.807049 12993 net.cpp:157] Top shape: 8 3 512 512 (6291456)
I0329 19:57:21.807065 12993 net.cpp:157] Top shape: 8 3 512 512 (6291456)
I0329 19:57:21.807081 12993 net.cpp:157] Top shape: 8 3 512 512 (6291456)
I0329 19:57:21.807096 12993 net.cpp:157] Top shape: 8 3 512 512 (6291456)
I0329 19:57:21.807112 12993 net.cpp:157] Top shape: 8 3 512 512 (6291456)
I0329 19:57:21.807124 12993 net.cpp:165] Memory required for data: 201326624
I0329 19:57:21.807139 12993 layer_factory.hpp:77] Creating layer conv1_1
I0329 19:57:21.807199 12993 net.cpp:100] Creating Layer conv1_1
I0329 19:57:21.807214 12993 net.cpp:434] conv1_1 <- data_data_0_split_0
I0329 19:57:21.807240 12993 net.cpp:408] conv1_1 -> conv1_1
I0329 19:57:21.809705 12993 net.cpp:150] Setting up conv1_1
I0329 19:57:21.809736 12993 net.cpp:157] Top shape: 8 64 512 512 (134217728)
I0329 19:57:21.809753 12993 net.cpp:165] Memory required for data: 738197536
I0329 19:57:21.809801 12993 layer_factory.hpp:77] Creating layer relu1_1
I0329 19:57:21.809829 12993 net.cpp:100] Creating Layer relu1_1
I0329 19:57:21.809846 12993 net.cpp:434] relu1_1 <- conv1_1
I0329 19:57:21.809870 12993 net.cpp:395] relu1_1 -> conv1_1 (in-place)
I0329 19:57:21.809892 12993 net.cpp:150] Setting up relu1_1
I0329 19:57:21.809911 12993 net.cpp:157] Top shape: 8 64 512 512 (134217728)
I0329 19:57:21.809922 12993 net.cpp:165] Memory required for data: 1275068448
I0329 19:57:21.809937 12993 layer_factory.hpp:77] Creating layer conv1_2
I0329 19:57:21.809967 12993 net.cpp:100] Creating Layer conv1_2
I0329 19:57:21.809980 12993 net.cpp:434] conv1_2 <- conv1_1
I0329 19:57:21.810006 12993 net.cpp:408] conv1_2 -> conv1_2
I0329 19:57:21.812629 12993 net.cpp:150] Setting up conv1_2
I0329 19:57:21.812657 12993 net.cpp:157] Top shape: 8 64 512 512 (134217728)
I0329 19:57:21.812670 12993 net.cpp:165] Memory required for data: 1811939360
I0329 19:57:21.812697 12993 layer_factory.hpp:77] Creating layer relu1_2
I0329 19:57:21.812716 12993 net.cpp:100] Creating Layer relu1_2
I0329 19:57:21.812728 12993 net.cpp:434] relu1_2 <- conv1_2
I0329 19:57:21.812752 12993 net.cpp:395] relu1_2 -> conv1_2 (in-place)
I0329 19:57:21.812772 12993 net.cpp:150] Setting up relu1_2
I0329 19:57:21.812789 12993 net.cpp:157] Top shape: 8 64 512 512 (134217728)
I0329 19:57:21.812801 12993 net.cpp:165] Memory required for data: 2348810272
I0329 19:57:21.812816 12993 layer_factory.hpp:77] Creating layer pool1
I0329 19:57:21.812840 12993 net.cpp:100] Creating Layer pool1
I0329 19:57:21.812853 12993 net.cpp:434] pool1 <- conv1_2
I0329 19:57:21.812873 12993 net.cpp:408] pool1 -> pool1
I0329 19:57:21.812964 12993 net.cpp:150] Setting up pool1
I0329 19:57:21.812990 12993 net.cpp:157] Top shape: 8 64 256 256 (33554432)
I0329 19:57:21.813002 12993 net.cpp:165] Memory required for data: 2483028000
I0329 19:57:21.813017 12993 layer_factory.hpp:77] Creating layer conv2_1
I0329 19:57:21.813076 12993 net.cpp:100] Creating Layer conv2_1
I0329 19:57:21.813089 12993 net.cpp:434] conv2_1 <- pool1
I0329 19:57:21.813114 12993 net.cpp:408] conv2_1 -> conv2_1
I0329 19:57:21.815600 12993 net.cpp:150] Setting up conv2_1
I0329 19:57:21.815625 12993 net.cpp:157] Top shape: 8 128 256 256 (67108864)
I0329 19:57:21.815639 12993 net.cpp:165] Memory required for data: 2751463456
I0329 19:57:21.815667 12993 layer_factory.hpp:77] Creating layer relu2_1
I0329 19:57:21.815692 12993 net.cpp:100] Creating Layer relu2_1
I0329 19:57:21.815706 12993 net.cpp:434] relu2_1 <- conv2_1
I0329 19:57:21.815724 12993 net.cpp:395] relu2_1 -> conv2_1 (in-place)
I0329 19:57:21.815743 12993 net.cpp:150] Setting up relu2_1
I0329 19:57:21.815759 12993 net.cpp:157] Top shape: 8 128 256 256 (67108864)
I0329 19:57:21.815773 12993 net.cpp:165] Memory required for data: 3019898912
I0329 19:57:21.815786 12993 layer_factory.hpp:77] Creating layer conv2_2
I0329 19:57:21.815814 12993 net.cpp:100] Creating Layer conv2_2
I0329 19:57:21.815827 12993 net.cpp:434] conv2_2 <- conv2_1
I0329 19:57:21.815852 12993 net.cpp:408] conv2_2 -> conv2_2
I0329 19:57:21.817390 12993 net.cpp:150] Setting up conv2_2
I0329 19:57:21.817414 12993 net.cpp:157] Top shape: 8 128 256 256 (67108864)
I0329 19:57:21.817426 12993 net.cpp:165] Memory required for data: 3288334368
I0329 19:57:21.817451 12993 layer_factory.hpp:77] Creating layer relu2_2
I0329 19:57:21.817468 12993 net.cpp:100] Creating Layer relu2_2
I0329 19:57:21.817483 12993 net.cpp:434] relu2_2 <- conv2_2
I0329 19:57:21.817502 12993 net.cpp:395] relu2_2 -> conv2_2 (in-place)
I0329 19:57:21.817523 12993 net.cpp:150] Setting up relu2_2
I0329 19:57:21.817540 12993 net.cpp:157] Top shape: 8 128 256 256 (67108864)
I0329 19:57:21.817554 12993 net.cpp:165] Memory required for data: 3556769824
I0329 19:57:21.817569 12993 layer_factory.hpp:77] Creating layer pool2
I0329 19:57:21.817595 12993 net.cpp:100] Creating Layer pool2
I0329 19:57:21.817607 12993 net.cpp:434] pool2 <- conv2_2
I0329 19:57:21.817632 12993 net.cpp:408] pool2 -> pool2
I0329 19:57:21.817693 12993 net.cpp:150] Setting up pool2
I0329 19:57:21.817713 12993 net.cpp:157] Top shape: 8 128 128 128 (16777216)
I0329 19:57:21.817728 12993 net.cpp:165] Memory required for data: 3623878688
I0329 19:57:21.817741 12993 layer_factory.hpp:77] Creating layer conv3_1
I0329 19:57:21.817770 12993 net.cpp:100] Creating Layer conv3_1
I0329 19:57:21.817783 12993 net.cpp:434] conv3_1 <- pool2
I0329 19:57:21.817811 12993 net.cpp:408] conv3_1 -> conv3_1
I0329 19:57:21.822546 12993 net.cpp:150] Setting up conv3_1
I0329 19:57:21.822582 12993 net.cpp:157] Top shape: 8 256 128 128 (33554432)
I0329 19:57:21.822597 12993 net.cpp:165] Memory required for data: 3758096416
I0329 19:57:21.822628 12993 layer_factory.hpp:77] Creating layer relu3_1
I0329 19:57:21.822650 12993 net.cpp:100] Creating Layer relu3_1
I0329 19:57:21.822664 12993 net.cpp:434] relu3_1 <- conv3_1
I0329 19:57:21.822685 12993 net.cpp:395] relu3_1 -> conv3_1 (in-place)
I0329 19:57:21.822703 12993 net.cpp:150] Setting up relu3_1
I0329 19:57:21.822719 12993 net.cpp:157] Top shape: 8 256 128 128 (33554432)
I0329 19:57:21.822732 12993 net.cpp:165] Memory required for data: 3892314144
I0329 19:57:21.822746 12993 layer_factory.hpp:77] Creating layer conv3_2
I0329 19:57:21.822775 12993 net.cpp:100] Creating Layer conv3_2
I0329 19:57:21.822788 12993 net.cpp:434] conv3_2 <- conv3_1
I0329 19:57:21.822813 12993 net.cpp:408] conv3_2 -> conv3_2
I0329 19:57:21.829825 12993 net.cpp:150] Setting up conv3_2
I0329 19:57:21.829874 12993 net.cpp:157] Top shape: 8 256 128 128 (33554432)
I0329 19:57:21.829888 12993 net.cpp:165] Memory required for data: 4026531872
I0329 19:57:21.829912 12993 layer_factory.hpp:77] Creating layer relu3_2
I0329 19:57:21.829938 12993 net.cpp:100] Creating Layer relu3_2
I0329 19:57:21.829952 12993 net.cpp:434] relu3_2 <- conv3_2
I0329 19:57:21.829977 12993 net.cpp:395] relu3_2 -> conv3_2 (in-place)
I0329 19:57:21.830000 12993 net.cpp:150] Setting up relu3_2
I0329 19:57:21.830016 12993 net.cpp:157] Top shape: 8 256 128 128 (33554432)
I0329 19:57:21.830070 12993 net.cpp:165] Memory required for data: 4160749600
I0329 19:57:21.830087 12993 layer_factory.hpp:77] Creating layer conv3_3
I0329 19:57:21.830129 12993 net.cpp:100] Creating Layer conv3_3
I0329 19:57:21.830143 12993 net.cpp:434] conv3_3 <- conv3_2
I0329 19:57:21.830168 12993 net.cpp:408] conv3_3 -> conv3_3
I0329 19:57:21.837384 12993 net.cpp:150] Setting up conv3_3
I0329 19:57:21.837430 12993 net.cpp:157] Top shape: 8 256 128 128 (33554432)
I0329 19:57:21.837443 12993 net.cpp:165] Memory required for data: 4294967328
I0329 19:57:21.837478 12993 layer_factory.hpp:77] Creating layer relu3_3
I0329 19:57:21.837505 12993 net.cpp:100] Creating Layer relu3_3
I0329 19:57:21.837520 12993 net.cpp:434] relu3_3 <- conv3_3
I0329 19:57:21.837543 12993 net.cpp:395] relu3_3 -> conv3_3 (in-place)
I0329 19:57:21.837564 12993 net.cpp:150] Setting up relu3_3
I0329 19:57:21.837586 12993 net.cpp:157] Top shape: 8 256 128 128 (33554432)
I0329 19:57:21.837597 12993 net.cpp:165] Memory required for data: 4429185056
I0329 19:57:21.837612 12993 layer_factory.hpp:77] Creating layer pool3
I0329 19:57:21.837638 12993 net.cpp:100] Creating Layer pool3
I0329 19:57:21.837651 12993 net.cpp:434] pool3 <- conv3_3
I0329 19:57:21.837672 12993 net.cpp:408] pool3 -> pool3
I0329 19:57:21.837743 12993 net.cpp:150] Setting up pool3
I0329 19:57:21.837762 12993 net.cpp:157] Top shape: 8 256 64 64 (8388608)
I0329 19:57:21.837775 12993 net.cpp:165] Memory required for data: 4462739488
I0329 19:57:21.837790 12993 layer_factory.hpp:77] Creating layer conv4_1
I0329 19:57:21.837822 12993 net.cpp:100] Creating Layer conv4_1
I0329 19:57:21.837836 12993 net.cpp:434] conv4_1 <- pool3
I0329 19:57:21.837857 12993 net.cpp:408] conv4_1 -> conv4_1
I0329 19:57:21.852447 12993 net.cpp:150] Setting up conv4_1
I0329 19:57:21.852499 12993 net.cpp:157] Top shape: 8 512 64 64 (16777216)
I0329 19:57:21.852511 12993 net.cpp:165] Memory required for data: 4529848352
I0329 19:57:21.852537 12993 layer_factory.hpp:77] Creating layer relu4_1
I0329 19:57:21.852571 12993 net.cpp:100] Creating Layer relu4_1
I0329 19:57:21.852591 12993 net.cpp:434] relu4_1 <- conv4_1
I0329 19:57:21.852615 12993 net.cpp:395] relu4_1 -> conv4_1 (in-place)
I0329 19:57:21.852639 12993 net.cpp:150] Setting up relu4_1
I0329 19:57:21.852656 12993 net.cpp:157] Top shape: 8 512 64 64 (16777216)
I0329 19:57:21.852669 12993 net.cpp:165] Memory required for data: 4596957216
I0329 19:57:21.852684 12993 layer_factory.hpp:77] Creating layer conv4_2
I0329 19:57:21.852717 12993 net.cpp:100] Creating Layer conv4_2
I0329 19:57:21.852730 12993 net.cpp:434] conv4_2 <- conv4_1
I0329 19:57:21.852756 12993 net.cpp:408] conv4_2 -> conv4_2
I0329 19:57:21.879012 12993 net.cpp:150] Setting up conv4_2
I0329 19:57:21.879072 12993 net.cpp:157] Top shape: 8 512 64 64 (16777216)
I0329 19:57:21.879086 12993 net.cpp:165] Memory required for data: 4664066080
I0329 19:57:21.879128 12993 layer_factory.hpp:77] Creating layer relu4_2
I0329 19:57:21.879160 12993 net.cpp:100] Creating Layer relu4_2
I0329 19:57:21.879175 12993 net.cpp:434] relu4_2 <- conv4_2
I0329 19:57:21.879200 12993 net.cpp:395] relu4_2 -> conv4_2 (in-place)
I0329 19:57:21.879227 12993 net.cpp:150] Setting up relu4_2
I0329 19:57:21.879243 12993 net.cpp:157] Top shape: 8 512 64 64 (16777216)
I0329 19:57:21.879256 12993 net.cpp:165] Memory required for data: 4731174944
I0329 19:57:21.879269 12993 layer_factory.hpp:77] Creating layer conv4_3
I0329 19:57:21.879300 12993 net.cpp:100] Creating Layer conv4_3
I0329 19:57:21.879312 12993 net.cpp:434] conv4_3 <- conv4_2
I0329 19:57:21.879339 12993 net.cpp:408] conv4_3 -> conv4_3
I0329 19:57:21.905612 12993 net.cpp:150] Setting up conv4_3
I0329 19:57:21.905659 12993 net.cpp:157] Top shape: 8 512 64 64 (16777216)
I0329 19:57:21.905671 12993 net.cpp:165] Memory required for data: 4798283808
I0329 19:57:21.905695 12993 layer_factory.hpp:77] Creating layer relu4_3
I0329 19:57:21.905722 12993 net.cpp:100] Creating Layer relu4_3
I0329 19:57:21.905737 12993 net.cpp:434] relu4_3 <- conv4_3
I0329 19:57:21.905802 12993 net.cpp:395] relu4_3 -> conv4_3 (in-place)
I0329 19:57:21.905827 12993 net.cpp:150] Setting up relu4_3
I0329 19:57:21.905844 12993 net.cpp:157] Top shape: 8 512 64 64 (16777216)
I0329 19:57:21.905856 12993 net.cpp:165] Memory required for data: 4865392672
I0329 19:57:21.905871 12993 layer_factory.hpp:77] Creating layer conv4_3_relu4_3_0_split
I0329 19:57:21.905891 12993 net.cpp:100] Creating Layer conv4_3_relu4_3_0_split
I0329 19:57:21.905903 12993 net.cpp:434] conv4_3_relu4_3_0_split <- conv4_3
I0329 19:57:21.905922 12993 net.cpp:408] conv4_3_relu4_3_0_split -> conv4_3_relu4_3_0_split_0
I0329 19:57:21.905946 12993 net.cpp:408] conv4_3_relu4_3_0_split -> conv4_3_relu4_3_0_split_1
I0329 19:57:21.906005 12993 net.cpp:150] Setting up conv4_3_relu4_3_0_split
I0329 19:57:21.906025 12993 net.cpp:157] Top shape: 8 512 64 64 (16777216)
I0329 19:57:21.906044 12993 net.cpp:157] Top shape: 8 512 64 64 (16777216)
I0329 19:57:21.906055 12993 net.cpp:165] Memory required for data: 4999610400
I0329 19:57:21.906069 12993 layer_factory.hpp:77] Creating layer pool4
I0329 19:57:21.906095 12993 net.cpp:100] Creating Layer pool4
I0329 19:57:21.906107 12993 net.cpp:434] pool4 <- conv4_3_relu4_3_0_split_0
I0329 19:57:21.906127 12993 net.cpp:408] pool4 -> pool4
I0329 19:57:21.906194 12993 net.cpp:150] Setting up pool4
I0329 19:57:21.906214 12993 net.cpp:157] Top shape: 8 512 32 32 (4194304)
I0329 19:57:21.906227 12993 net.cpp:165] Memory required for data: 5016387616
I0329 19:57:21.906260 12993 layer_factory.hpp:77] Creating layer conv5_1
I0329 19:57:21.906293 12993 net.cpp:100] Creating Layer conv5_1
I0329 19:57:21.906308 12993 net.cpp:434] conv5_1 <- pool4
I0329 19:57:21.906335 12993 net.cpp:408] conv5_1 -> conv5_1
I0329 19:57:21.932432 12993 net.cpp:150] Setting up conv5_1
I0329 19:57:21.932478 12993 net.cpp:157] Top shape: 8 512 32 32 (4194304)
I0329 19:57:21.932492 12993 net.cpp:165] Memory required for data: 5033164832
I0329 19:57:21.932515 12993 layer_factory.hpp:77] Creating layer relu5_1
I0329 19:57:21.932545 12993 net.cpp:100] Creating Layer relu5_1
I0329 19:57:21.932561 12993 net.cpp:434] relu5_1 <- conv5_1
I0329 19:57:21.932586 12993 net.cpp:395] relu5_1 -> conv5_1 (in-place)
I0329 19:57:21.932610 12993 net.cpp:150] Setting up relu5_1
I0329 19:57:21.932626 12993 net.cpp:157] Top shape: 8 512 32 32 (4194304)
I0329 19:57:21.932638 12993 net.cpp:165] Memory required for data: 5049942048
I0329 19:57:21.932653 12993 layer_factory.hpp:77] Creating layer conv5_2
I0329 19:57:21.932685 12993 net.cpp:100] Creating Layer conv5_2
I0329 19:57:21.932698 12993 net.cpp:434] conv5_2 <- conv5_1
I0329 19:57:21.932723 12993 net.cpp:408] conv5_2 -> conv5_2
I0329 19:57:21.958858 12993 net.cpp:150] Setting up conv5_2
I0329 19:57:21.958906 12993 net.cpp:157] Top shape: 8 512 32 32 (4194304)
I0329 19:57:21.958919 12993 net.cpp:165] Memory required for data: 5066719264
I0329 19:57:21.958942 12993 layer_factory.hpp:77] Creating layer relu5_2
I0329 19:57:21.958971 12993 net.cpp:100] Creating Layer relu5_2
I0329 19:57:21.958986 12993 net.cpp:434] relu5_2 <- conv5_2
I0329 19:57:21.959005 12993 net.cpp:395] relu5_2 -> conv5_2 (in-place)
I0329 19:57:21.959028 12993 net.cpp:150] Setting up relu5_2
I0329 19:57:21.959045 12993 net.cpp:157] Top shape: 8 512 32 32 (4194304)
I0329 19:57:21.959058 12993 net.cpp:165] Memory required for data: 5083496480
I0329 19:57:21.959072 12993 layer_factory.hpp:77] Creating layer conv5_3
I0329 19:57:21.959106 12993 net.cpp:100] Creating Layer conv5_3
I0329 19:57:21.959120 12993 net.cpp:434] conv5_3 <- conv5_2
I0329 19:57:21.959141 12993 net.cpp:408] conv5_3 -> conv5_3
I0329 19:57:21.985339 12993 net.cpp:150] Setting up conv5_3
I0329 19:57:21.985388 12993 net.cpp:157] Top shape: 8 512 32 32 (4194304)
I0329 19:57:21.985401 12993 net.cpp:165] Memory required for data: 5100273696
I0329 19:57:21.985425 12993 layer_factory.hpp:77] Creating layer relu5_3
I0329 19:57:21.985463 12993 net.cpp:100] Creating Layer relu5_3
I0329 19:57:21.985477 12993 net.cpp:434] relu5_3 <- conv5_3
I0329 19:57:21.985500 12993 net.cpp:395] relu5_3 -> conv5_3 (in-place)
I0329 19:57:21.985566 12993 net.cpp:150] Setting up relu5_3
I0329 19:57:21.985590 12993 net.cpp:157] Top shape: 8 512 32 32 (4194304)
I0329 19:57:21.985601 12993 net.cpp:165] Memory required for data: 5117050912
I0329 19:57:21.985615 12993 layer_factory.hpp:77] Creating layer pool5
I0329 19:57:21.985637 12993 net.cpp:100] Creating Layer pool5
I0329 19:57:21.985649 12993 net.cpp:434] pool5 <- conv5_3
I0329 19:57:21.985672 12993 net.cpp:408] pool5 -> pool5
I0329 19:57:21.985739 12993 net.cpp:150] Setting up pool5
I0329 19:57:21.985759 12993 net.cpp:157] Top shape: 8 512 32 32 (4194304)
I0329 19:57:21.985772 12993 net.cpp:165] Memory required for data: 5133828128
I0329 19:57:21.985787 12993 layer_factory.hpp:77] Creating layer fc6
I0329 19:57:21.985819 12993 net.cpp:100] Creating Layer fc6
I0329 19:57:21.985833 12993 net.cpp:434] fc6 <- pool5
I0329 19:57:21.985855 12993 net.cpp:408] fc6 -> fc6
I0329 19:57:22.037459 12993 net.cpp:150] Setting up fc6
I0329 19:57:22.037528 12993 net.cpp:157] Top shape: 8 1024 32 32 (8388608)
I0329 19:57:22.037540 12993 net.cpp:165] Memory required for data: 5167382560
I0329 19:57:22.037564 12993 layer_factory.hpp:77] Creating layer relu6
I0329 19:57:22.037598 12993 net.cpp:100] Creating Layer relu6
I0329 19:57:22.037614 12993 net.cpp:434] relu6 <- fc6
I0329 19:57:22.037637 12993 net.cpp:395] relu6 -> fc6 (in-place)
I0329 19:57:22.037664 12993 net.cpp:150] Setting up relu6
I0329 19:57:22.037683 12993 net.cpp:157] Top shape: 8 1024 32 32 (8388608)
I0329 19:57:22.037694 12993 net.cpp:165] Memory required for data: 5200936992
I0329 19:57:22.037709 12993 layer_factory.hpp:77] Creating layer fc7
I0329 19:57:22.037744 12993 net.cpp:100] Creating Layer fc7
I0329 19:57:22.037757 12993 net.cpp:434] fc7 <- fc6
I0329 19:57:22.037783 12993 net.cpp:408] fc7 -> fc7
I0329 19:57:22.049813 12993 net.cpp:150] Setting up fc7
I0329 19:57:22.049837 12993 net.cpp:157] Top shape: 8 1024 32 32 (8388608)
I0329 19:57:22.049851 12993 net.cpp:165] Memory required for data: 5234491424
I0329 19:57:22.049876 12993 layer_factory.hpp:77] Creating layer relu7
I0329 19:57:22.049895 12993 net.cpp:100] Creating Layer relu7
I0329 19:57:22.049907 12993 net.cpp:434] relu7 <- fc7
I0329 19:57:22.049930 12993 net.cpp:395] relu7 -> fc7 (in-place)
I0329 19:57:22.049950 12993 net.cpp:150] Setting up relu7
I0329 19:57:22.049968 12993 net.cpp:157] Top shape: 8 1024 32 32 (8388608)
I0329 19:57:22.049979 12993 net.cpp:165] Memory required for data: 5268045856
I0329 19:57:22.049993 12993 layer_factory.hpp:77] Creating layer fc7_relu7_0_split
I0329 19:57:22.050014 12993 net.cpp:100] Creating Layer fc7_relu7_0_split
I0329 19:57:22.050026 12993 net.cpp:434] fc7_relu7_0_split <- fc7
I0329 19:57:22.050046 12993 net.cpp:408] fc7_relu7_0_split -> fc7_relu7_0_split_0
I0329 19:57:22.050066 12993 net.cpp:408] fc7_relu7_0_split -> fc7_relu7_0_split_1
I0329 19:57:22.050096 12993 net.cpp:408] fc7_relu7_0_split -> fc7_relu7_0_split_2
I0329 19:57:22.050117 12993 net.cpp:408] fc7_relu7_0_split -> fc7_relu7_0_split_3
I0329 19:57:22.050201 12993 net.cpp:150] Setting up fc7_relu7_0_split
I0329 19:57:22.050221 12993 net.cpp:157] Top shape: 8 1024 32 32 (8388608)
I0329 19:57:22.050240 12993 net.cpp:157] Top shape: 8 1024 32 32 (8388608)
I0329 19:57:22.050256 12993 net.cpp:157] Top shape: 8 1024 32 32 (8388608)
I0329 19:57:22.050272 12993 net.cpp:157] Top shape: 8 1024 32 32 (8388608)
I0329 19:57:22.050283 12993 net.cpp:165] Memory required for data: 5402263584
I0329 19:57:22.050298 12993 layer_factory.hpp:77] Creating layer conv6_1
I0329 19:57:22.050330 12993 net.cpp:100] Creating Layer conv6_1
I0329 19:57:22.050345 12993 net.cpp:434] conv6_1 <- fc7_relu7_0_split_0
I0329 19:57:22.050369 12993 net.cpp:408] conv6_1 -> conv6_1
I0329 19:57:22.053686 12993 net.cpp:150] Setting up conv6_1
I0329 19:57:22.053710 12993 net.cpp:157] Top shape: 8 256 32 32 (2097152)
I0329 19:57:22.053723 12993 net.cpp:165] Memory required for data: 5410652192
I0329 19:57:22.053747 12993 layer_factory.hpp:77] Creating layer conv6_1_relu
I0329 19:57:22.053807 12993 net.cpp:100] Creating Layer conv6_1_relu
I0329 19:57:22.053823 12993 net.cpp:434] conv6_1_relu <- conv6_1
I0329 19:57:22.053843 12993 net.cpp:395] conv6_1_relu -> conv6_1 (in-place)
I0329 19:57:22.053863 12993 net.cpp:150] Setting up conv6_1_relu
I0329 19:57:22.053879 12993 net.cpp:157] Top shape: 8 256 32 32 (2097152)
I0329 19:57:22.053891 12993 net.cpp:165] Memory required for data: 5419040800
I0329 19:57:22.053905 12993 layer_factory.hpp:77] Creating layer conv6_2
I0329 19:57:22.053934 12993 net.cpp:100] Creating Layer conv6_2
I0329 19:57:22.053947 12993 net.cpp:434] conv6_2 <- conv6_1
I0329 19:57:22.053972 12993 net.cpp:408] conv6_2 -> conv6_2
I0329 19:57:22.067188 12993 net.cpp:150] Setting up conv6_2
I0329 19:57:22.067217 12993 net.cpp:157] Top shape: 8 512 16 16 (1048576)
I0329 19:57:22.067230 12993 net.cpp:165] Memory required for data: 5423235104
I0329 19:57:22.067268 12993 layer_factory.hpp:77] Creating layer conv6_2_relu
I0329 19:57:22.067287 12993 net.cpp:100] Creating Layer conv6_2_relu
I0329 19:57:22.067302 12993 net.cpp:434] conv6_2_relu <- conv6_2
I0329 19:57:22.067322 12993 net.cpp:395] conv6_2_relu -> conv6_2 (in-place)
I0329 19:57:22.067343 12993 net.cpp:150] Setting up conv6_2_relu
I0329 19:57:22.067359 12993 net.cpp:157] Top shape: 8 512 16 16 (1048576)
I0329 19:57:22.067373 12993 net.cpp:165] Memory required for data: 5427429408
I0329 19:57:22.067386 12993 layer_factory.hpp:77] Creating layer conv6_2_conv6_2_relu_0_split
I0329 19:57:22.067409 12993 net.cpp:100] Creating Layer conv6_2_conv6_2_relu_0_split
I0329 19:57:22.067422 12993 net.cpp:434] conv6_2_conv6_2_relu_0_split <- conv6_2
I0329 19:57:22.067442 12993 net.cpp:408] conv6_2_conv6_2_relu_0_split -> conv6_2_conv6_2_relu_0_split_0
I0329 19:57:22.067463 12993 net.cpp:408] conv6_2_conv6_2_relu_0_split -> conv6_2_conv6_2_relu_0_split_1
I0329 19:57:22.067484 12993 net.cpp:408] conv6_2_conv6_2_relu_0_split -> conv6_2_conv6_2_relu_0_split_2
I0329 19:57:22.067508 12993 net.cpp:408] conv6_2_conv6_2_relu_0_split -> conv6_2_conv6_2_relu_0_split_3
I0329 19:57:22.067591 12993 net.cpp:150] Setting up conv6_2_conv6_2_relu_0_split
I0329 19:57:22.067610 12993 net.cpp:157] Top shape: 8 512 16 16 (1048576)
I0329 19:57:22.067629 12993 net.cpp:157] Top shape: 8 512 16 16 (1048576)
I0329 19:57:22.067646 12993 net.cpp:157] Top shape: 8 512 16 16 (1048576)
I0329 19:57:22.067662 12993 net.cpp:157] Top shape: 8 512 16 16 (1048576)
I0329 19:57:22.067673 12993 net.cpp:165] Memory required for data: 5444206624
I0329 19:57:22.067687 12993 layer_factory.hpp:77] Creating layer conv7_1
I0329 19:57:22.067718 12993 net.cpp:100] Creating Layer conv7_1
I0329 19:57:22.067732 12993 net.cpp:434] conv7_1 <- conv6_2_conv6_2_relu_0_split_0
I0329 19:57:22.067755 12993 net.cpp:408] conv7_1 -> conv7_1
I0329 19:57:22.068584 12993 net.cpp:150] Setting up conv7_1
I0329 19:57:22.068606 12993 net.cpp:157] Top shape: 8 128 16 16 (262144)
I0329 19:57:22.068620 12993 net.cpp:165] Memory required for data: 5445255200
I0329 19:57:22.068644 12993 layer_factory.hpp:77] Creating layer conv7_1_relu
I0329 19:57:22.068686 12993 net.cpp:100] Creating Layer conv7_1_relu
I0329 19:57:22.068701 12993 net.cpp:434] conv7_1_relu <- conv7_1
I0329 19:57:22.068723 12993 net.cpp:395] conv7_1_relu -> conv7_1 (in-place)
I0329 19:57:22.068743 12993 net.cpp:150] Setting up conv7_1_relu
I0329 19:57:22.068763 12993 net.cpp:157] Top shape: 8 128 16 16 (262144)
I0329 19:57:22.068774 12993 net.cpp:165] Memory required for data: 5446303776
I0329 19:57:22.068790 12993 layer_factory.hpp:77] Creating layer conv7_2
I0329 19:57:22.068823 12993 net.cpp:100] Creating Layer conv7_2
I0329 19:57:22.068837 12993 net.cpp:434] conv7_2 <- conv7_1
I0329 19:57:22.068861 12993 net.cpp:408] conv7_2 -> conv7_2
I0329 19:57:22.072662 12993 net.cpp:150] Setting up conv7_2
I0329 19:57:22.072685 12993 net.cpp:157] Top shape: 8 256 8 8 (131072)
I0329 19:57:22.072700 12993 net.cpp:165] Memory required for data: 5446828064
I0329 19:57:22.072723 12993 layer_factory.hpp:77] Creating layer conv7_2_relu
I0329 19:57:22.072741 12993 net.cpp:100] Creating Layer conv7_2_relu
I0329 19:57:22.072779 12993 net.cpp:434] conv7_2_relu <- conv7_2
I0329 19:57:22.072803 12993 net.cpp:395] conv7_2_relu -> conv7_2 (in-place)
I0329 19:57:22.072824 12993 net.cpp:150] Setting up conv7_2_relu
I0329 19:57:22.072840 12993 net.cpp:157] Top shape: 8 256 8 8 (131072)
I0329 19:57:22.072852 12993 net.cpp:165] Memory required for data: 5447352352
I0329 19:57:22.072867 12993 layer_factory.hpp:77] Creating layer conv7_2_conv7_2_relu_0_split
I0329 19:57:22.072886 12993 net.cpp:100] Creating Layer conv7_2_conv7_2_relu_0_split
I0329 19:57:22.072898 12993 net.cpp:434] conv7_2_conv7_2_relu_0_split <- conv7_2
I0329 19:57:22.072921 12993 net.cpp:408] conv7_2_conv7_2_relu_0_split -> conv7_2_conv7_2_relu_0_split_0
I0329 19:57:22.072942 12993 net.cpp:408] conv7_2_conv7_2_relu_0_split -> conv7_2_conv7_2_relu_0_split_1
I0329 19:57:22.072963 12993 net.cpp:408] conv7_2_conv7_2_relu_0_split -> conv7_2_conv7_2_relu_0_split_2
I0329 19:57:22.072983 12993 net.cpp:408] conv7_2_conv7_2_relu_0_split -> conv7_2_conv7_2_relu_0_split_3
I0329 19:57:22.073065 12993 net.cpp:150] Setting up conv7_2_conv7_2_relu_0_split
I0329 19:57:22.073088 12993 net.cpp:157] Top shape: 8 256 8 8 (131072)
I0329 19:57:22.073105 12993 net.cpp:157] Top shape: 8 256 8 8 (131072)
I0329 19:57:22.073122 12993 net.cpp:157] Top shape: 8 256 8 8 (131072)
I0329 19:57:22.073137 12993 net.cpp:157] Top shape: 8 256 8 8 (131072)
I0329 19:57:22.073149 12993 net.cpp:165] Memory required for data: 5449449504
I0329 19:57:22.073163 12993 layer_factory.hpp:77] Creating layer conv8_1
I0329 19:57:22.073191 12993 net.cpp:100] Creating Layer conv8_1
I0329 19:57:22.073205 12993 net.cpp:434] conv8_1 <- conv7_2_conv7_2_relu_0_split_0
I0329 19:57:22.073227 12993 net.cpp:408] conv8_1 -> conv8_1
I0329 19:57:22.074672 12993 net.cpp:150] Setting up conv8_1
I0329 19:57:22.074697 12993 net.cpp:157] Top shape: 8 128 8 8 (65536)
I0329 19:57:22.074710 12993 net.cpp:165] Memory required for data: 5449711648
I0329 19:57:22.074735 12993 layer_factory.hpp:77] Creating layer conv8_1_relu
I0329 19:57:22.074757 12993 net.cpp:100] Creating Layer conv8_1_relu
I0329 19:57:22.074770 12993 net.cpp:434] conv8_1_relu <- conv8_1
I0329 19:57:22.074790 12993 net.cpp:395] conv8_1_relu -> conv8_1 (in-place)
I0329 19:57:22.074807 12993 net.cpp:150] Setting up conv8_1_relu
I0329 19:57:22.074823 12993 net.cpp:157] Top shape: 8 128 8 8 (65536)
I0329 19:57:22.074836 12993 net.cpp:165] Memory required for data: 5449973792
I0329 19:57:22.074851 12993 layer_factory.hpp:77] Creating layer conv8_2
I0329 19:57:22.074879 12993 net.cpp:100] Creating Layer conv8_2
I0329 19:57:22.074893 12993 net.cpp:434] conv8_2 <- conv8_1
I0329 19:57:22.074918 12993 net.cpp:408] conv8_2 -> conv8_2
I0329 19:57:22.078723 12993 net.cpp:150] Setting up conv8_2
I0329 19:57:22.078747 12993 net.cpp:157] Top shape: 8 256 6 6 (73728)
I0329 19:57:22.078760 12993 net.cpp:165] Memory required for data: 5450268704
I0329 19:57:22.078784 12993 layer_factory.hpp:77] Creating layer conv8_2_relu
I0329 19:57:22.078806 12993 net.cpp:100] Creating Layer conv8_2_relu
I0329 19:57:22.078819 12993 net.cpp:434] conv8_2_relu <- conv8_2
I0329 19:57:22.078838 12993 net.cpp:395] conv8_2_relu -> conv8_2 (in-place)
I0329 19:57:22.078857 12993 net.cpp:150] Setting up conv8_2_relu
I0329 19:57:22.078873 12993 net.cpp:157] Top shape: 8 256 6 6 (73728)
I0329 19:57:22.078886 12993 net.cpp:165] Memory required for data: 5450563616
I0329 19:57:22.078900 12993 layer_factory.hpp:77] Creating layer conv8_2_conv8_2_relu_0_split
I0329 19:57:22.078923 12993 net.cpp:100] Creating Layer conv8_2_conv8_2_relu_0_split
I0329 19:57:22.078935 12993 net.cpp:434] conv8_2_conv8_2_relu_0_split <- conv8_2
I0329 19:57:22.078955 12993 net.cpp:408] conv8_2_conv8_2_relu_0_split -> conv8_2_conv8_2_relu_0_split_0
I0329 19:57:22.078976 12993 net.cpp:408] conv8_2_conv8_2_relu_0_split -> conv8_2_conv8_2_relu_0_split_1
I0329 19:57:22.078996 12993 net.cpp:408] conv8_2_conv8_2_relu_0_split -> conv8_2_conv8_2_relu_0_split_2
I0329 19:57:22.079016 12993 net.cpp:408] conv8_2_conv8_2_relu_0_split -> conv8_2_conv8_2_relu_0_split_3
I0329 19:57:22.079123 12993 net.cpp:150] Setting up conv8_2_conv8_2_relu_0_split
I0329 19:57:22.079144 12993 net.cpp:157] Top shape: 8 256 6 6 (73728)
I0329 19:57:22.079162 12993 net.cpp:157] Top shape: 8 256 6 6 (73728)
I0329 19:57:22.079179 12993 net.cpp:157] Top shape: 8 256 6 6 (73728)
I0329 19:57:22.079195 12993 net.cpp:157] Top shape: 8 256 6 6 (73728)
I0329 19:57:22.079205 12993 net.cpp:165] Memory required for data: 5451743264
I0329 19:57:22.079221 12993 layer_factory.hpp:77] Creating layer conv9_1
I0329 19:57:22.079248 12993 net.cpp:100] Creating Layer conv9_1
I0329 19:57:22.079262 12993 net.cpp:434] conv9_1 <- conv8_2_conv8_2_relu_0_split_0
I0329 19:57:22.079288 12993 net.cpp:408] conv9_1 -> conv9_1
I0329 19:57:22.079834 12993 net.cpp:150] Setting up conv9_1
I0329 19:57:22.079856 12993 net.cpp:157] Top shape: 8 128 6 6 (36864)
I0329 19:57:22.079871 12993 net.cpp:165] Memory required for data: 5451890720
I0329 19:57:22.079895 12993 layer_factory.hpp:77] Creating layer conv9_1_relu
I0329 19:57:22.079912 12993 net.cpp:100] Creating Layer conv9_1_relu
I0329 19:57:22.079926 12993 net.cpp:434] conv9_1_relu <- conv9_1
I0329 19:57:22.079952 12993 net.cpp:395] conv9_1_relu -> conv9_1 (in-place)
I0329 19:57:22.079972 12993 net.cpp:150] Setting up conv9_1_relu
I0329 19:57:22.079989 12993 net.cpp:157] Top shape: 8 128 6 6 (36864)
I0329 19:57:22.080003 12993 net.cpp:165] Memory required for data: 5452038176
I0329 19:57:22.080018 12993 layer_factory.hpp:77] Creating layer conv9_2
I0329 19:57:22.080046 12993 net.cpp:100] Creating Layer conv9_2
I0329 19:57:22.080060 12993 net.cpp:434] conv9_2 <- conv9_1
I0329 19:57:22.080081 12993 net.cpp:408] conv9_2 -> conv9_2
I0329 19:57:22.083889 12993 net.cpp:150] Setting up conv9_2
I0329 19:57:22.083914 12993 net.cpp:157] Top shape: 8 256 4 4 (32768)
I0329 19:57:22.083926 12993 net.cpp:165] Memory required for data: 5452169248
I0329 19:57:22.083950 12993 layer_factory.hpp:77] Creating layer conv9_2_relu
I0329 19:57:22.083968 12993 net.cpp:100] Creating Layer conv9_2_relu
I0329 19:57:22.083981 12993 net.cpp:434] conv9_2_relu <- conv9_2
I0329 19:57:22.083999 12993 net.cpp:395] conv9_2_relu -> conv9_2 (in-place)
I0329 19:57:22.084019 12993 net.cpp:150] Setting up conv9_2_relu
I0329 19:57:22.084035 12993 net.cpp:157] Top shape: 8 256 4 4 (32768)
I0329 19:57:22.084048 12993 net.cpp:165] Memory required for data: 5452300320
I0329 19:57:22.084062 12993 layer_factory.hpp:77] Creating layer conv9_2_conv9_2_relu_0_split
I0329 19:57:22.084084 12993 net.cpp:100] Creating Layer conv9_2_conv9_2_relu_0_split
I0329 19:57:22.084097 12993 net.cpp:434] conv9_2_conv9_2_relu_0_split <- conv9_2
I0329 19:57:22.084116 12993 net.cpp:408] conv9_2_conv9_2_relu_0_split -> conv9_2_conv9_2_relu_0_split_0
I0329 19:57:22.084137 12993 net.cpp:408] conv9_2_conv9_2_relu_0_split -> conv9_2_conv9_2_relu_0_split_1
I0329 19:57:22.084157 12993 net.cpp:408] conv9_2_conv9_2_relu_0_split -> conv9_2_conv9_2_relu_0_split_2
I0329 19:57:22.084233 12993 net.cpp:150] Setting up conv9_2_conv9_2_relu_0_split
I0329 19:57:22.084254 12993 net.cpp:157] Top shape: 8 256 4 4 (32768)
I0329 19:57:22.084270 12993 net.cpp:157] Top shape: 8 256 4 4 (32768)
I0329 19:57:22.084286 12993 net.cpp:157] Top shape: 8 256 4 4 (32768)
I0329 19:57:22.084298 12993 net.cpp:165] Memory required for data: 5452693536
I0329 19:57:22.084313 12993 layer_factory.hpp:77] Creating layer conv4_3_norm
I0329 19:57:22.084344 12993 net.cpp:100] Creating Layer conv4_3_norm
I0329 19:57:22.084358 12993 net.cpp:434] conv4_3_norm <- conv4_3_relu4_3_0_split_1
I0329 19:57:22.084383 12993 net.cpp:408] conv4_3_norm -> conv4_3_norm
I0329 19:57:22.084583 12993 net.cpp:150] Setting up conv4_3_norm
I0329 19:57:22.084604 12993 net.cpp:157] Top shape: 8 512 64 64 (16777216)
I0329 19:57:22.084619 12993 net.cpp:165] Memory required for data: 5519802400
I0329 19:57:22.084640 12993 layer_factory.hpp:77] Creating layer conv4_3_norm_conv4_3_norm_0_split
I0329 19:57:22.084657 12993 net.cpp:100] Creating Layer conv4_3_norm_conv4_3_norm_0_split
I0329 19:57:22.084687 12993 net.cpp:434] conv4_3_norm_conv4_3_norm_0_split <- conv4_3_norm
I0329 19:57:22.084708 12993 net.cpp:408] conv4_3_norm_conv4_3_norm_0_split -> conv4_3_norm_conv4_3_norm_0_split_0
I0329 19:57:22.084736 12993 net.cpp:408] conv4_3_norm_conv4_3_norm_0_split -> conv4_3_norm_conv4_3_norm_0_split_1
I0329 19:57:22.084758 12993 net.cpp:408] conv4_3_norm_conv4_3_norm_0_split -> conv4_3_norm_conv4_3_norm_0_split_2
I0329 19:57:22.084830 12993 net.cpp:150] Setting up conv4_3_norm_conv4_3_norm_0_split
I0329 19:57:22.084851 12993 net.cpp:157] Top shape: 8 512 64 64 (16777216)
I0329 19:57:22.084869 12993 net.cpp:157] Top shape: 8 512 64 64 (16777216)
I0329 19:57:22.084885 12993 net.cpp:157] Top shape: 8 512 64 64 (16777216)
I0329 19:57:22.084897 12993 net.cpp:165] Memory required for data: 5721128992
I0329 19:57:22.084911 12993 layer_factory.hpp:77] Creating layer conv4_3_norm_mbox_loc
I0329 19:57:22.084936 12993 net.cpp:100] Creating Layer conv4_3_norm_mbox_loc
I0329 19:57:22.084950 12993 net.cpp:434] conv4_3_norm_mbox_loc <- conv4_3_norm_conv4_3_norm_0_split_0
I0329 19:57:22.084975 12993 net.cpp:408] conv4_3_norm_mbox_loc -> conv4_3_norm_mbox_loc
I0329 19:57:22.086763 12993 net.cpp:150] Setting up conv4_3_norm_mbox_loc
I0329 19:57:22.086787 12993 net.cpp:157] Top shape: 8 16 64 64 (524288)
I0329 19:57:22.086800 12993 net.cpp:165] Memory required for data: 5723226144
I0329 19:57:22.086824 12993 layer_factory.hpp:77] Creating layer conv4_3_norm_mbox_loc_perm
I0329 19:57:22.086853 12993 net.cpp:100] Creating Layer conv4_3_norm_mbox_loc_perm
I0329 19:57:22.086868 12993 net.cpp:434] conv4_3_norm_mbox_loc_perm <- conv4_3_norm_mbox_loc
I0329 19:57:22.086889 12993 net.cpp:408] conv4_3_norm_mbox_loc_perm -> conv4_3_norm_mbox_loc_perm
I0329 19:57:22.087038 12993 net.cpp:150] Setting up conv4_3_norm_mbox_loc_perm
I0329 19:57:22.087059 12993 net.cpp:157] Top shape: 8 64 64 16 (524288)
I0329 19:57:22.087074 12993 net.cpp:165] Memory required for data: 5725323296
I0329 19:57:22.087088 12993 layer_factory.hpp:77] Creating layer conv4_3_norm_mbox_loc_flat
I0329 19:57:22.087116 12993 net.cpp:100] Creating Layer conv4_3_norm_mbox_loc_flat
I0329 19:57:22.087129 12993 net.cpp:434] conv4_3_norm_mbox_loc_flat <- conv4_3_norm_mbox_loc_perm
I0329 19:57:22.087149 12993 net.cpp:408] conv4_3_norm_mbox_loc_flat -> conv4_3_norm_mbox_loc_flat
I0329 19:57:22.087218 12993 net.cpp:150] Setting up conv4_3_norm_mbox_loc_flat
I0329 19:57:22.087239 12993 net.cpp:157] Top shape: 8 65536 (524288)
I0329 19:57:22.087255 12993 net.cpp:165] Memory required for data: 5727420448
I0329 19:57:22.087268 12993 layer_factory.hpp:77] Creating layer conv4_3_norm_mbox_conf
I0329 19:57:22.087309 12993 net.cpp:100] Creating Layer conv4_3_norm_mbox_conf
I0329 19:57:22.087324 12993 net.cpp:434] conv4_3_norm_mbox_conf <- conv4_3_norm_conv4_3_norm_0_split_1
I0329 19:57:22.087347 12993 net.cpp:408] conv4_3_norm_mbox_conf -> conv4_3_norm_mbox_conf
I0329 19:57:22.087961 12993 net.cpp:150] Setting up conv4_3_norm_mbox_conf
I0329 19:57:22.087983 12993 net.cpp:157] Top shape: 8 8 64 64 (262144)
I0329 19:57:22.087998 12993 net.cpp:165] Memory required for data: 5728469024
I0329 19:57:22.088021 12993 layer_factory.hpp:77] Creating layer conv4_3_norm_mbox_conf_perm
I0329 19:57:22.088040 12993 net.cpp:100] Creating Layer conv4_3_norm_mbox_conf_perm
I0329 19:57:22.088053 12993 net.cpp:434] conv4_3_norm_mbox_conf_perm <- conv4_3_norm_mbox_conf
I0329 19:57:22.088078 12993 net.cpp:408] conv4_3_norm_mbox_conf_perm -> conv4_3_norm_mbox_conf_perm
I0329 19:57:22.088202 12993 net.cpp:150] Setting up conv4_3_norm_mbox_conf_perm
I0329 19:57:22.088225 12993 net.cpp:157] Top shape: 8 64 64 8 (262144)
I0329 19:57:22.088258 12993 net.cpp:165] Memory required for data: 5729517600
I0329 19:57:22.088271 12993 layer_factory.hpp:77] Creating layer conv4_3_norm_mbox_conf_flat
I0329 19:57:22.088291 12993 net.cpp:100] Creating Layer conv4_3_norm_mbox_conf_flat
I0329 19:57:22.088306 12993 net.cpp:434] conv4_3_norm_mbox_conf_flat <- conv4_3_norm_mbox_conf_perm
I0329 19:57:22.088326 12993 net.cpp:408] conv4_3_norm_mbox_conf_flat -> conv4_3_norm_mbox_conf_flat
I0329 19:57:22.088397 12993 net.cpp:150] Setting up conv4_3_norm_mbox_conf_flat
I0329 19:57:22.088418 12993 net.cpp:157] Top shape: 8 32768 (262144)
I0329 19:57:22.088433 12993 net.cpp:165] Memory required for data: 5730566176
I0329 19:57:22.088448 12993 layer_factory.hpp:77] Creating layer conv4_3_norm_mbox_priorbox
I0329 19:57:22.088475 12993 net.cpp:100] Creating Layer conv4_3_norm_mbox_priorbox
I0329 19:57:22.088488 12993 net.cpp:434] conv4_3_norm_mbox_priorbox <- conv4_3_norm_conv4_3_norm_0_split_2
I0329 19:57:22.088506 12993 net.cpp:434] conv4_3_norm_mbox_priorbox <- data_data_0_split_1
I0329 19:57:22.088527 12993 net.cpp:408] conv4_3_norm_mbox_priorbox -> conv4_3_norm_mbox_priorbox
I0329 19:57:22.088593 12993 net.cpp:150] Setting up conv4_3_norm_mbox_priorbox
I0329 19:57:22.088614 12993 net.cpp:157] Top shape: 1 2 65536 (131072)
I0329 19:57:22.088629 12993 net.cpp:165] Memory required for data: 5731090464
I0329 19:57:22.088644 12993 layer_factory.hpp:77] Creating layer fc7_mbox_loc
I0329 19:57:22.088672 12993 net.cpp:100] Creating Layer fc7_mbox_loc
I0329 19:57:22.088686 12993 net.cpp:434] fc7_mbox_loc <- fc7_relu7_0_split_1
I0329 19:57:22.088711 12993 net.cpp:408] fc7_mbox_loc -> fc7_mbox_loc
I0329 19:57:22.091699 12993 net.cpp:150] Setting up fc7_mbox_loc
I0329 19:57:22.091722 12993 net.cpp:157] Top shape: 8 24 32 32 (196608)
I0329 19:57:22.091735 12993 net.cpp:165] Memory required for data: 5731876896
I0329 19:57:22.091759 12993 layer_factory.hpp:77] Creating layer fc7_mbox_loc_perm
I0329 19:57:22.091783 12993 net.cpp:100] Creating Layer fc7_mbox_loc_perm
I0329 19:57:22.091795 12993 net.cpp:434] fc7_mbox_loc_perm <- fc7_mbox_loc
I0329 19:57:22.091816 12993 net.cpp:408] fc7_mbox_loc_perm -> fc7_mbox_loc_perm
I0329 19:57:22.091944 12993 net.cpp:150] Setting up fc7_mbox_loc_perm
I0329 19:57:22.091964 12993 net.cpp:157] Top shape: 8 32 32 24 (196608)
I0329 19:57:22.091979 12993 net.cpp:165] Memory required for data: 5732663328
I0329 19:57:22.091994 12993 layer_factory.hpp:77] Creating layer fc7_mbox_loc_flat
I0329 19:57:22.092011 12993 net.cpp:100] Creating Layer fc7_mbox_loc_flat
I0329 19:57:22.092025 12993 net.cpp:434] fc7_mbox_loc_flat <- fc7_mbox_loc_perm
I0329 19:57:22.092047 12993 net.cpp:408] fc7_mbox_loc_flat -> fc7_mbox_loc_flat
I0329 19:57:22.092089 12993 net.cpp:150] Setting up fc7_mbox_loc_flat
I0329 19:57:22.092108 12993 net.cpp:157] Top shape: 8 24576 (196608)
I0329 19:57:22.092121 12993 net.cpp:165] Memory required for data: 5733449760
I0329 19:57:22.092136 12993 layer_factory.hpp:77] Creating layer fc7_mbox_conf
I0329 19:57:22.092167 12993 net.cpp:100] Creating Layer fc7_mbox_conf
I0329 19:57:22.092181 12993 net.cpp:434] fc7_mbox_conf <- fc7_relu7_0_split_2
I0329 19:57:22.092203 12993 net.cpp:408] fc7_mbox_conf -> fc7_mbox_conf
I0329 19:57:22.093411 12993 net.cpp:150] Setting up fc7_mbox_conf
I0329 19:57:22.093433 12993 net.cpp:157] Top shape: 8 12 32 32 (98304)
I0329 19:57:22.093446 12993 net.cpp:165] Memory required for data: 5733842976
I0329 19:57:22.093470 12993 layer_factory.hpp:77] Creating layer fc7_mbox_conf_perm
I0329 19:57:22.093489 12993 net.cpp:100] Creating Layer fc7_mbox_conf_perm
I0329 19:57:22.093508 12993 net.cpp:434] fc7_mbox_conf_perm <- fc7_mbox_conf
I0329 19:57:22.093529 12993 net.cpp:408] fc7_mbox_conf_perm -> fc7_mbox_conf_perm
I0329 19:57:22.093662 12993 net.cpp:150] Setting up fc7_mbox_conf_perm
I0329 19:57:22.093681 12993 net.cpp:157] Top shape: 8 32 32 12 (98304)
I0329 19:57:22.093695 12993 net.cpp:165] Memory required for data: 5734236192
I0329 19:57:22.093710 12993 layer_factory.hpp:77] Creating layer fc7_mbox_conf_flat
I0329 19:57:22.093729 12993 net.cpp:100] Creating Layer fc7_mbox_conf_flat
I0329 19:57:22.093741 12993 net.cpp:434] fc7_mbox_conf_flat <- fc7_mbox_conf_perm
I0329 19:57:22.093761 12993 net.cpp:408] fc7_mbox_conf_flat -> fc7_mbox_conf_flat
I0329 19:57:22.093806 12993 net.cpp:150] Setting up fc7_mbox_conf_flat
I0329 19:57:22.093824 12993 net.cpp:157] Top shape: 8 12288 (98304)
I0329 19:57:22.093838 12993 net.cpp:165] Memory required for data: 5734629408
I0329 19:57:22.093873 12993 layer_factory.hpp:77] Creating layer fc7_mbox_priorbox
I0329 19:57:22.093899 12993 net.cpp:100] Creating Layer fc7_mbox_priorbox
I0329 19:57:22.093911 12993 net.cpp:434] fc7_mbox_priorbox <- fc7_relu7_0_split_3
I0329 19:57:22.093928 12993 net.cpp:434] fc7_mbox_priorbox <- data_data_0_split_2
I0329 19:57:22.093948 12993 net.cpp:408] fc7_mbox_priorbox -> fc7_mbox_priorbox
I0329 19:57:22.093997 12993 net.cpp:150] Setting up fc7_mbox_priorbox
I0329 19:57:22.094017 12993 net.cpp:157] Top shape: 1 2 24576 (49152)
I0329 19:57:22.094029 12993 net.cpp:165] Memory required for data: 5734826016
I0329 19:57:22.094043 12993 layer_factory.hpp:77] Creating layer conv6_2_mbox_loc
I0329 19:57:22.094071 12993 net.cpp:100] Creating Layer conv6_2_mbox_loc
I0329 19:57:22.094084 12993 net.cpp:434] conv6_2_mbox_loc <- conv6_2_conv6_2_relu_0_split_1
I0329 19:57:22.094113 12993 net.cpp:408] conv6_2_mbox_loc -> conv6_2_mbox_loc
I0329 19:57:22.096215 12993 net.cpp:150] Setting up conv6_2_mbox_loc
I0329 19:57:22.096238 12993 net.cpp:157] Top shape: 8 24 16 16 (49152)
I0329 19:57:22.096252 12993 net.cpp:165] Memory required for data: 5735022624
I0329 19:57:22.096276 12993 layer_factory.hpp:77] Creating layer conv6_2_mbox_loc_perm
I0329 19:57:22.096297 12993 net.cpp:100] Creating Layer conv6_2_mbox_loc_perm
I0329 19:57:22.096309 12993 net.cpp:434] conv6_2_mbox_loc_perm <- conv6_2_mbox_loc
I0329 19:57:22.096335 12993 net.cpp:408] conv6_2_mbox_loc_perm -> conv6_2_mbox_loc_perm
I0329 19:57:22.096459 12993 net.cpp:150] Setting up conv6_2_mbox_loc_perm
I0329 19:57:22.096480 12993 net.cpp:157] Top shape: 8 16 16 24 (49152)
I0329 19:57:22.096493 12993 net.cpp:165] Memory required for data: 5735219232
I0329 19:57:22.096508 12993 layer_factory.hpp:77] Creating layer conv6_2_mbox_loc_flat
I0329 19:57:22.096531 12993 net.cpp:100] Creating Layer conv6_2_mbox_loc_flat
I0329 19:57:22.096544 12993 net.cpp:434] conv6_2_mbox_loc_flat <- conv6_2_mbox_loc_perm
I0329 19:57:22.096565 12993 net.cpp:408] conv6_2_mbox_loc_flat -> conv6_2_mbox_loc_flat
I0329 19:57:22.096614 12993 net.cpp:150] Setting up conv6_2_mbox_loc_flat
I0329 19:57:22.096633 12993 net.cpp:157] Top shape: 8 6144 (49152)
I0329 19:57:22.096647 12993 net.cpp:165] Memory required for data: 5735415840
I0329 19:57:22.096662 12993 layer_factory.hpp:77] Creating layer conv6_2_mbox_conf
I0329 19:57:22.096689 12993 net.cpp:100] Creating Layer conv6_2_mbox_conf
I0329 19:57:22.096704 12993 net.cpp:434] conv6_2_mbox_conf <- conv6_2_conv6_2_relu_0_split_2
I0329 19:57:22.096729 12993 net.cpp:408] conv6_2_mbox_conf -> conv6_2_mbox_conf
I0329 19:57:22.097476 12993 net.cpp:150] Setting up conv6_2_mbox_conf
I0329 19:57:22.097498 12993 net.cpp:157] Top shape: 8 12 16 16 (24576)
I0329 19:57:22.097512 12993 net.cpp:165] Memory required for data: 5735514144
I0329 19:57:22.097534 12993 layer_factory.hpp:77] Creating layer conv6_2_mbox_conf_perm
I0329 19:57:22.097554 12993 net.cpp:100] Creating Layer conv6_2_mbox_conf_perm
I0329 19:57:22.097594 12993 net.cpp:434] conv6_2_mbox_conf_perm <- conv6_2_mbox_conf
I0329 19:57:22.097616 12993 net.cpp:408] conv6_2_mbox_conf_perm -> conv6_2_mbox_conf_perm
I0329 19:57:22.097741 12993 net.cpp:150] Setting up conv6_2_mbox_conf_perm
I0329 19:57:22.097761 12993 net.cpp:157] Top shape: 8 16 16 12 (24576)
I0329 19:57:22.097775 12993 net.cpp:165] Memory required for data: 5735612448
I0329 19:57:22.097790 12993 layer_factory.hpp:77] Creating layer conv6_2_mbox_conf_flat
I0329 19:57:22.097810 12993 net.cpp:100] Creating Layer conv6_2_mbox_conf_flat
I0329 19:57:22.097822 12993 net.cpp:434] conv6_2_mbox_conf_flat <- conv6_2_mbox_conf_perm
I0329 19:57:22.097846 12993 net.cpp:408] conv6_2_mbox_conf_flat -> conv6_2_mbox_conf_flat
I0329 19:57:22.097888 12993 net.cpp:150] Setting up conv6_2_mbox_conf_flat
I0329 19:57:22.097913 12993 net.cpp:157] Top shape: 8 3072 (24576)
I0329 19:57:22.097924 12993 net.cpp:165] Memory required for data: 5735710752
I0329 19:57:22.097939 12993 layer_factory.hpp:77] Creating layer conv6_2_mbox_priorbox
I0329 19:57:22.097980 12993 net.cpp:100] Creating Layer conv6_2_mbox_priorbox
I0329 19:57:22.097998 12993 net.cpp:434] conv6_2_mbox_priorbox <- conv6_2_conv6_2_relu_0_split_3
I0329 19:57:22.098016 12993 net.cpp:434] conv6_2_mbox_priorbox <- data_data_0_split_3
I0329 19:57:22.098039 12993 net.cpp:408] conv6_2_mbox_priorbox -> conv6_2_mbox_priorbox
I0329 19:57:22.098085 12993 net.cpp:150] Setting up conv6_2_mbox_priorbox
I0329 19:57:22.098109 12993 net.cpp:157] Top shape: 1 2 6144 (12288)
I0329 19:57:22.098122 12993 net.cpp:165] Memory required for data: 5735759904
I0329 19:57:22.098136 12993 layer_factory.hpp:77] Creating layer conv7_2_mbox_loc
I0329 19:57:22.098161 12993 net.cpp:100] Creating Layer conv7_2_mbox_loc
I0329 19:57:22.098175 12993 net.cpp:434] conv7_2_mbox_loc <- conv7_2_conv7_2_relu_0_split_1
I0329 19:57:22.098199 12993 net.cpp:408] conv7_2_mbox_loc -> conv7_2_mbox_loc
I0329 19:57:22.098959 12993 net.cpp:150] Setting up conv7_2_mbox_loc
I0329 19:57:22.098980 12993 net.cpp:157] Top shape: 8 24 8 8 (12288)
I0329 19:57:22.098995 12993 net.cpp:165] Memory required for data: 5735809056
I0329 19:57:22.099032 12993 layer_factory.hpp:77] Creating layer conv7_2_mbox_loc_perm
I0329 19:57:22.099052 12993 net.cpp:100] Creating Layer conv7_2_mbox_loc_perm
I0329 19:57:22.099068 12993 net.cpp:434] conv7_2_mbox_loc_perm <- conv7_2_mbox_loc
I0329 19:57:22.099095 12993 net.cpp:408] conv7_2_mbox_loc_perm -> conv7_2_mbox_loc_perm
I0329 19:57:22.099226 12993 net.cpp:150] Setting up conv7_2_mbox_loc_perm
I0329 19:57:22.099246 12993 net.cpp:157] Top shape: 8 8 8 24 (12288)
I0329 19:57:22.099259 12993 net.cpp:165] Memory required for data: 5735858208
I0329 19:57:22.099274 12993 layer_factory.hpp:77] Creating layer conv7_2_mbox_loc_flat
I0329 19:57:22.099298 12993 net.cpp:100] Creating Layer conv7_2_mbox_loc_flat
I0329 19:57:22.099310 12993 net.cpp:434] conv7_2_mbox_loc_flat <- conv7_2_mbox_loc_perm
I0329 19:57:22.099334 12993 net.cpp:408] conv7_2_mbox_loc_flat -> conv7_2_mbox_loc_flat
I0329 19:57:22.099378 12993 net.cpp:150] Setting up conv7_2_mbox_loc_flat
I0329 19:57:22.099397 12993 net.cpp:157] Top shape: 8 1536 (12288)
I0329 19:57:22.099411 12993 net.cpp:165] Memory required for data: 5735907360
I0329 19:57:22.099426 12993 layer_factory.hpp:77] Creating layer conv7_2_mbox_conf
I0329 19:57:22.099453 12993 net.cpp:100] Creating Layer conv7_2_mbox_conf
I0329 19:57:22.099469 12993 net.cpp:434] conv7_2_mbox_conf <- conv7_2_conv7_2_relu_0_split_2
I0329 19:57:22.099493 12993 net.cpp:408] conv7_2_mbox_conf -> conv7_2_mbox_conf
I0329 19:57:22.100004 12993 net.cpp:150] Setting up conv7_2_mbox_conf
I0329 19:57:22.100026 12993 net.cpp:157] Top shape: 8 12 8 8 (6144)
I0329 19:57:22.100040 12993 net.cpp:165] Memory required for data: 5735931936
I0329 19:57:22.100062 12993 layer_factory.hpp:77] Creating layer conv7_2_mbox_conf_perm
I0329 19:57:22.100080 12993 net.cpp:100] Creating Layer conv7_2_mbox_conf_perm
I0329 19:57:22.100095 12993 net.cpp:434] conv7_2_mbox_conf_perm <- conv7_2_mbox_conf
I0329 19:57:22.100117 12993 net.cpp:408] conv7_2_mbox_conf_perm -> conv7_2_mbox_conf_perm
I0329 19:57:22.100244 12993 net.cpp:150] Setting up conv7_2_mbox_conf_perm
I0329 19:57:22.100267 12993 net.cpp:157] Top shape: 8 8 8 12 (6144)
I0329 19:57:22.100281 12993 net.cpp:165] Memory required for data: 5735956512
I0329 19:57:22.100296 12993 layer_factory.hpp:77] Creating layer conv7_2_mbox_conf_flat
I0329 19:57:22.100314 12993 net.cpp:100] Creating Layer conv7_2_mbox_conf_flat
I0329 19:57:22.100327 12993 net.cpp:434] conv7_2_mbox_conf_flat <- conv7_2_mbox_conf_perm
I0329 19:57:22.100347 12993 net.cpp:408] conv7_2_mbox_conf_flat -> conv7_2_mbox_conf_flat
I0329 19:57:22.100394 12993 net.cpp:150] Setting up conv7_2_mbox_conf_flat
I0329 19:57:22.100412 12993 net.cpp:157] Top shape: 8 768 (6144)
I0329 19:57:22.100426 12993 net.cpp:165] Memory required for data: 5735981088
I0329 19:57:22.100441 12993 layer_factory.hpp:77] Creating layer conv7_2_mbox_priorbox
I0329 19:57:22.100464 12993 net.cpp:100] Creating Layer conv7_2_mbox_priorbox
I0329 19:57:22.100477 12993 net.cpp:434] conv7_2_mbox_priorbox <- conv7_2_conv7_2_relu_0_split_3
I0329 19:57:22.100512 12993 net.cpp:434] conv7_2_mbox_priorbox <- data_data_0_split_4
I0329 19:57:22.100534 12993 net.cpp:408] conv7_2_mbox_priorbox -> conv7_2_mbox_priorbox
I0329 19:57:22.100587 12993 net.cpp:150] Setting up conv7_2_mbox_priorbox
I0329 19:57:22.100608 12993 net.cpp:157] Top shape: 1 2 1536 (3072)
I0329 19:57:22.100621 12993 net.cpp:165] Memory required for data: 5735993376
I0329 19:57:22.100637 12993 layer_factory.hpp:77] Creating layer conv8_2_mbox_loc
I0329 19:57:22.100689 12993 net.cpp:100] Creating Layer conv8_2_mbox_loc
I0329 19:57:22.100705 12993 net.cpp:434] conv8_2_mbox_loc <- conv8_2_conv8_2_relu_0_split_1
I0329 19:57:22.100736 12993 net.cpp:408] conv8_2_mbox_loc -> conv8_2_mbox_loc
I0329 19:57:22.102484 12993 net.cpp:150] Setting up conv8_2_mbox_loc
I0329 19:57:22.102509 12993 net.cpp:157] Top shape: 8 16 6 6 (4608)
I0329 19:57:22.102522 12993 net.cpp:165] Memory required for data: 5736011808
I0329 19:57:22.102566 12993 layer_factory.hpp:77] Creating layer conv8_2_mbox_loc_perm
I0329 19:57:22.102592 12993 net.cpp:100] Creating Layer conv8_2_mbox_loc_perm
I0329 19:57:22.102607 12993 net.cpp:434] conv8_2_mbox_loc_perm <- conv8_2_mbox_loc
I0329 19:57:22.102632 12993 net.cpp:408] conv8_2_mbox_loc_perm -> conv8_2_mbox_loc_perm
I0329 19:57:22.102761 12993 net.cpp:150] Setting up conv8_2_mbox_loc_perm
I0329 19:57:22.102782 12993 net.cpp:157] Top shape: 8 6 6 16 (4608)
I0329 19:57:22.102795 12993 net.cpp:165] Memory required for data: 5736030240
I0329 19:57:22.102810 12993 layer_factory.hpp:77] Creating layer conv8_2_mbox_loc_flat
I0329 19:57:22.102833 12993 net.cpp:100] Creating Layer conv8_2_mbox_loc_flat
I0329 19:57:22.102846 12993 net.cpp:434] conv8_2_mbox_loc_flat <- conv8_2_mbox_loc_perm
I0329 19:57:22.102866 12993 net.cpp:408] conv8_2_mbox_loc_flat -> conv8_2_mbox_loc_flat
I0329 19:57:22.102912 12993 net.cpp:150] Setting up conv8_2_mbox_loc_flat
I0329 19:57:22.102931 12993 net.cpp:157] Top shape: 8 576 (4608)
I0329 19:57:22.102944 12993 net.cpp:165] Memory required for data: 5736048672
I0329 19:57:22.102959 12993 layer_factory.hpp:77] Creating layer conv8_2_mbox_conf
I0329 19:57:22.102986 12993 net.cpp:100] Creating Layer conv8_2_mbox_conf
I0329 19:57:22.103000 12993 net.cpp:434] conv8_2_mbox_conf <- conv8_2_conv8_2_relu_0_split_2
I0329 19:57:22.103024 12993 net.cpp:408] conv8_2_mbox_conf -> conv8_2_mbox_conf
I0329 19:57:22.103459 12993 net.cpp:150] Setting up conv8_2_mbox_conf
I0329 19:57:22.103484 12993 net.cpp:157] Top shape: 8 8 6 6 (2304)
I0329 19:57:22.103516 12993 net.cpp:165] Memory required for data: 5736057888
I0329 19:57:22.103539 12993 layer_factory.hpp:77] Creating layer conv8_2_mbox_conf_perm
I0329 19:57:22.103559 12993 net.cpp:100] Creating Layer conv8_2_mbox_conf_perm
I0329 19:57:22.103574 12993 net.cpp:434] conv8_2_mbox_conf_perm <- conv8_2_mbox_conf
I0329 19:57:22.103601 12993 net.cpp:408] conv8_2_mbox_conf_perm -> conv8_2_mbox_conf_perm
I0329 19:57:22.103734 12993 net.cpp:150] Setting up conv8_2_mbox_conf_perm
I0329 19:57:22.103754 12993 net.cpp:157] Top shape: 8 6 6 8 (2304)
I0329 19:57:22.103768 12993 net.cpp:165] Memory required for data: 5736067104
I0329 19:57:22.103783 12993 layer_factory.hpp:77] Creating layer conv8_2_mbox_conf_flat
I0329 19:57:22.103802 12993 net.cpp:100] Creating Layer conv8_2_mbox_conf_flat
I0329 19:57:22.103816 12993 net.cpp:434] conv8_2_mbox_conf_flat <- conv8_2_mbox_conf_perm
I0329 19:57:22.103839 12993 net.cpp:408] conv8_2_mbox_conf_flat -> conv8_2_mbox_conf_flat
I0329 19:57:22.103889 12993 net.cpp:150] Setting up conv8_2_mbox_conf_flat
I0329 19:57:22.103909 12993 net.cpp:157] Top shape: 8 288 (2304)
I0329 19:57:22.103921 12993 net.cpp:165] Memory required for data: 5736076320
I0329 19:57:22.103936 12993 layer_factory.hpp:77] Creating layer conv8_2_mbox_priorbox
I0329 19:57:22.103956 12993 net.cpp:100] Creating Layer conv8_2_mbox_priorbox
I0329 19:57:22.103969 12993 net.cpp:434] conv8_2_mbox_priorbox <- conv8_2_conv8_2_relu_0_split_3
I0329 19:57:22.103986 12993 net.cpp:434] conv8_2_mbox_priorbox <- data_data_0_split_5
I0329 19:57:22.104028 12993 net.cpp:408] conv8_2_mbox_priorbox -> conv8_2_mbox_priorbox
I0329 19:57:22.104079 12993 net.cpp:150] Setting up conv8_2_mbox_priorbox
I0329 19:57:22.104099 12993 net.cpp:157] Top shape: 1 2 576 (1152)
I0329 19:57:22.104112 12993 net.cpp:165] Memory required for data: 5736080928
I0329 19:57:22.104127 12993 layer_factory.hpp:77] Creating layer conv9_2_mbox_loc
I0329 19:57:22.104156 12993 net.cpp:100] Creating Layer conv9_2_mbox_loc
I0329 19:57:22.104169 12993 net.cpp:434] conv9_2_mbox_loc <- conv9_2_conv9_2_relu_0_split_0
I0329 19:57:22.104192 12993 net.cpp:408] conv9_2_mbox_loc -> conv9_2_mbox_loc
I0329 19:57:22.104780 12993 net.cpp:150] Setting up conv9_2_mbox_loc
I0329 19:57:22.104802 12993 net.cpp:157] Top shape: 8 16 4 4 (2048)
I0329 19:57:22.104816 12993 net.cpp:165] Memory required for data: 5736089120
I0329 19:57:22.104852 12993 layer_factory.hpp:77] Creating layer conv9_2_mbox_loc_perm
I0329 19:57:22.104871 12993 net.cpp:100] Creating Layer conv9_2_mbox_loc_perm
I0329 19:57:22.104888 12993 net.cpp:434] conv9_2_mbox_loc_perm <- conv9_2_mbox_loc
I0329 19:57:22.104913 12993 net.cpp:408] conv9_2_mbox_loc_perm -> conv9_2_mbox_loc_perm
I0329 19:57:22.105046 12993 net.cpp:150] Setting up conv9_2_mbox_loc_perm
I0329 19:57:22.105067 12993 net.cpp:157] Top shape: 8 4 4 16 (2048)
I0329 19:57:22.105080 12993 net.cpp:165] Memory required for data: 5736097312
I0329 19:57:22.105095 12993 layer_factory.hpp:77] Creating layer conv9_2_mbox_loc_flat
I0329 19:57:22.105114 12993 net.cpp:100] Creating Layer conv9_2_mbox_loc_flat
I0329 19:57:22.105127 12993 net.cpp:434] conv9_2_mbox_loc_flat <- conv9_2_mbox_loc_perm
I0329 19:57:22.105150 12993 net.cpp:408] conv9_2_mbox_loc_flat -> conv9_2_mbox_loc_flat
I0329 19:57:22.105193 12993 net.cpp:150] Setting up conv9_2_mbox_loc_flat
I0329 19:57:22.105212 12993 net.cpp:157] Top shape: 8 256 (2048)
I0329 19:57:22.105226 12993 net.cpp:165] Memory required for data: 5736105504
I0329 19:57:22.105240 12993 layer_factory.hpp:77] Creating layer conv9_2_mbox_conf
I0329 19:57:22.105270 12993 net.cpp:100] Creating Layer conv9_2_mbox_conf
I0329 19:57:22.105284 12993 net.cpp:434] conv9_2_mbox_conf <- conv9_2_conv9_2_relu_0_split_1
I0329 19:57:22.105306 12993 net.cpp:408] conv9_2_mbox_conf -> conv9_2_mbox_conf
I0329 19:57:22.105736 12993 net.cpp:150] Setting up conv9_2_mbox_conf
I0329 19:57:22.105758 12993 net.cpp:157] Top shape: 8 8 4 4 (1024)
I0329 19:57:22.105772 12993 net.cpp:165] Memory required for data: 5736109600
I0329 19:57:22.105808 12993 layer_factory.hpp:77] Creating layer conv9_2_mbox_conf_perm
I0329 19:57:22.105831 12993 net.cpp:100] Creating Layer conv9_2_mbox_conf_perm
I0329 19:57:22.105846 12993 net.cpp:434] conv9_2_mbox_conf_perm <- conv9_2_mbox_conf
I0329 19:57:22.105867 12993 net.cpp:408] conv9_2_mbox_conf_perm -> conv9_2_mbox_conf_perm
I0329 19:57:22.105999 12993 net.cpp:150] Setting up conv9_2_mbox_conf_perm
I0329 19:57:22.106019 12993 net.cpp:157] Top shape: 8 4 4 8 (1024)
I0329 19:57:22.106034 12993 net.cpp:165] Memory required for data: 5736113696
I0329 19:57:22.106047 12993 layer_factory.hpp:77] Creating layer conv9_2_mbox_conf_flat
I0329 19:57:22.106066 12993 net.cpp:100] Creating Layer conv9_2_mbox_conf_flat
I0329 19:57:22.106079 12993 net.cpp:434] conv9_2_mbox_conf_flat <- conv9_2_mbox_conf_perm
I0329 19:57:22.106098 12993 net.cpp:408] conv9_2_mbox_conf_flat -> conv9_2_mbox_conf_flat
I0329 19:57:22.106144 12993 net.cpp:150] Setting up conv9_2_mbox_conf_flat
I0329 19:57:22.106163 12993 net.cpp:157] Top shape: 8 128 (1024)
I0329 19:57:22.106176 12993 net.cpp:165] Memory required for data: 5736117792
I0329 19:57:22.106191 12993 layer_factory.hpp:77] Creating layer conv9_2_mbox_priorbox
I0329 19:57:22.106215 12993 net.cpp:100] Creating Layer conv9_2_mbox_priorbox
I0329 19:57:22.106228 12993 net.cpp:434] conv9_2_mbox_priorbox <- conv9_2_conv9_2_relu_0_split_2
I0329 19:57:22.106245 12993 net.cpp:434] conv9_2_mbox_priorbox <- data_data_0_split_6
I0329 19:57:22.106264 12993 net.cpp:408] conv9_2_mbox_priorbox -> conv9_2_mbox_priorbox
I0329 19:57:22.106333 12993 net.cpp:150] Setting up conv9_2_mbox_priorbox
I0329 19:57:22.106354 12993 net.cpp:157] Top shape: 1 2 256 (512)
I0329 19:57:22.106369 12993 net.cpp:165] Memory required for data: 5736119840
I0329 19:57:22.106382 12993 layer_factory.hpp:77] Creating layer mbox_loc
I0329 19:57:22.106410 12993 net.cpp:100] Creating Layer mbox_loc
I0329 19:57:22.106425 12993 net.cpp:434] mbox_loc <- conv4_3_norm_mbox_loc_flat
I0329 19:57:22.106441 12993 net.cpp:434] mbox_loc <- fc7_mbox_loc_flat
I0329 19:57:22.106457 12993 net.cpp:434] mbox_loc <- conv6_2_mbox_loc_flat
I0329 19:57:22.106472 12993 net.cpp:434] mbox_loc <- conv7_2_mbox_loc_flat
I0329 19:57:22.106487 12993 net.cpp:434] mbox_loc <- conv8_2_mbox_loc_flat
I0329 19:57:22.106501 12993 net.cpp:434] mbox_loc <- conv9_2_mbox_loc_flat
I0329 19:57:22.106520 12993 net.cpp:408] mbox_loc -> mbox_loc
I0329 19:57:22.106587 12993 net.cpp:150] Setting up mbox_loc
I0329 19:57:22.106608 12993 net.cpp:157] Top shape: 8 98624 (788992)
I0329 19:57:22.106621 12993 net.cpp:165] Memory required for data: 5739275808
I0329 19:57:22.106637 12993 layer_factory.hpp:77] Creating layer mbox_conf
I0329 19:57:22.106676 12993 net.cpp:100] Creating Layer mbox_conf
I0329 19:57:22.106691 12993 net.cpp:434] mbox_conf <- conv4_3_norm_mbox_conf_flat
I0329 19:57:22.106710 12993 net.cpp:434] mbox_conf <- fc7_mbox_conf_flat
I0329 19:57:22.106730 12993 net.cpp:434] mbox_conf <- conv6_2_mbox_conf_flat
I0329 19:57:22.106746 12993 net.cpp:434] mbox_conf <- conv7_2_mbox_conf_flat
I0329 19:57:22.106760 12993 net.cpp:434] mbox_conf <- conv8_2_mbox_conf_flat
I0329 19:57:22.106776 12993 net.cpp:434] mbox_conf <- conv9_2_mbox_conf_flat
I0329 19:57:22.106796 12993 net.cpp:408] mbox_conf -> mbox_conf
I0329 19:57:22.106842 12993 net.cpp:150] Setting up mbox_conf
I0329 19:57:22.106861 12993 net.cpp:157] Top shape: 8 49312 (394496)
I0329 19:57:22.106875 12993 net.cpp:165] Memory required for data: 5740853792
I0329 19:57:22.106889 12993 layer_factory.hpp:77] Creating layer mbox_priorbox
I0329 19:57:22.106915 12993 net.cpp:100] Creating Layer mbox_priorbox
I0329 19:57:22.106930 12993 net.cpp:434] mbox_priorbox <- conv4_3_norm_mbox_priorbox
I0329 19:57:22.106946 12993 net.cpp:434] mbox_priorbox <- fc7_mbox_priorbox
I0329 19:57:22.106961 12993 net.cpp:434] mbox_priorbox <- conv6_2_mbox_priorbox
I0329 19:57:22.106976 12993 net.cpp:434] mbox_priorbox <- conv7_2_mbox_priorbox
I0329 19:57:22.106989 12993 net.cpp:434] mbox_priorbox <- conv8_2_mbox_priorbox
I0329 19:57:22.107004 12993 net.cpp:434] mbox_priorbox <- conv9_2_mbox_priorbox
I0329 19:57:22.107023 12993 net.cpp:408] mbox_priorbox -> mbox_priorbox
I0329 19:57:22.107065 12993 net.cpp:150] Setting up mbox_priorbox
I0329 19:57:22.107085 12993 net.cpp:157] Top shape: 1 2 98624 (197248)
I0329 19:57:22.107098 12993 net.cpp:165] Memory required for data: 5741642784
I0329 19:57:22.107112 12993 layer_factory.hpp:77] Creating layer mbox_loss
I0329 19:57:22.107149 12993 net.cpp:100] Creating Layer mbox_loss
I0329 19:57:22.107163 12993 net.cpp:434] mbox_loss <- mbox_loc
I0329 19:57:22.107180 12993 net.cpp:434] mbox_loss <- mbox_conf
I0329 19:57:22.107195 12993 net.cpp:434] mbox_loss <- mbox_priorbox
…
  top: "data"
  top: "label"
  include {
    phase: TEST
  }
  transform_param {
    mean_value: 104
    mean_value: 117
    mean_value: 123
    resize_param {
      prob: 1
      resize_mode: WARP
      height: 512
      width: 512
      interp_mode: LINEAR
    }
  }
  data_param {
    source: "/home/pinchen/ssd/caffe/data/PlateDetection/lmdb/PlateDetection_test_lmdb"
    batch_size: 8
    backend: LMDB
  }
  annotated_data_param {
    batch_sampler {
    }
    label_map_file: "/home/pinchen/ssd/caffe/data/PlateDetection/labelmap.prototxt"
  }
}
layer {
  name: "conv1_1"
  type: "Convolution"
  bottom: "data"
  top: "conv1_1"
  param {
    lr_mult: 1
    decay_mult: 1
  }
  param {
    lr_mult: 2
    decay_mult: 0
  }
  convolution_param {
    num_output: 64
    pad: 1
    kernel_size: 3
    weight_filler {
      type: "xavier"
    }
    bias_filler {
      type: "constant"
      value: 0
    }
  }
}
layer {
  name: "relu1_1"
  type: "ReLU"
  bottom: "conv1_1"
  top: "conv1_1"
}
layer {
  name: "conv1_2"
  type: "Convolution"
  bottom: "conv1_1"
  top: "conv1_2"
  param {
    lr_mult: 1
    decay_mult: 1
  }
  param {
    lr_mult: 2
    decay_mult: 0
  }
  convolution_param {
    num_output: 64
    pad: 1
    kernel_size: 3
    weight_filler {
      type: "xavier"
    }
    bias_filler {
      type: "constant"
      value: 0
    }
  }
}
layer {
  name: "relu1_2"
  type: "ReLU"
  bottom: "conv1_2"
  top: "conv1_2"
}
layer {
  name: "pool1"
  type: "Pooling"
  bottom: "conv1_2"
  top: "pool1"
  pooling_param {
    pool: MAX
    kernel_size: 2
    stride: 2
  }
}
layer {
  name: "conv2_1"
  type: "Convolution"
  bottom: "pool1"
  top: "conv2_1"
  param {
    lr_mult: 1
    decay_mult: 1
  }
  param {
    lr_mult: 2
    decay_mult: 0
  }
  convolution_param {
    num_output: 128
    pad: 1
    kernel_size: 3
    weight_filler {
      type: "xavier"
    }
    bias_filler {
      type: "constant"
      value: 0
    }
  }
}
layer {
  name: "relu2_1"
  type: "ReLU"
  bottom: "conv2_1"
  top: "conv2_1"
}
layer {
  name: "conv2_2"
  type: "Convolution"
  bottom: "conv2_1"
  top: "conv2_2"
  param {
    lr_mult: 1
    decay_mult: 1
  }
  param {
    lr_mult: 2
    decay_mult: 0
  }
  convolution_param {
    num_output: 128
    pad: 1
    kernel_size: 3
    weight_filler {
      type: "xavier"
    }
    bias_filler {
      type: "constant"
      value: 0
    }
  }
}
layer {
  name: "relu2_2"
  type: "ReLU"
  bottom: "conv2_2"
  top: "conv2_2"
}
layer {
  name: "pool2"
  type: "Pooling"
  bottom: "conv2_2"
  top: "pool2"
  pooling_param {
    pool: MAX
    kernel_size: 2
    stride: 2
  }
}
layer {
  name: "conv3_1"
  type: "Convolution"
  bottom: "pool2"
  top: "conv3_1"
  param {
    lr_mult: 1
    decay_mult: 1
  }
  param {
    lr_mult: 2
    decay_mult: 0
  }
  convolution_param {
    num_output: 256
    pad: 1
    kernel_size: 3
    weight_filler {
      type: "xavier"
    }
    bias_filler {
      type: "constant"
      value: 0
    }
  }
}
layer {
  name: "relu3_1"
  type: "ReLU"
  bottom: "conv3_1"
  top: "conv3_1"
}
layer {
  name: "conv3_2"
  type: "Convolution"
  bottom: "conv3_1"
  top: "conv3_2"
  param {
    lr_mult: 1
    decay_mult: 1
  }
  param {
    lr_mult: 2
    decay_mult: 0
  }
  convolution_param {
    num_output: 256
    pad: 1
    kernel_size: 3
    weight_filler {
      type: "xavier"
    }
    bias_filler {
      type: "constant"
      value: 0
    }
  }
}
layer {
  name: "relu3_2"
  type: "ReLU"
  bottom: "conv3_2"
  top: "conv3_2"
}
layer {
  name: "conv3_3"
  type: "Convolution"
  bottom: "conv3_2"
  top: "conv3_3"
  param {
    lr_mult: 1
    decay_mult: 1
  }
  param {
    lr_mult: 2
    decay_mult: 0
  }
  convolution_param {
    num_output: 256
    pad: 1
    kernel_size: 3
    weight_filler {
      type: "xavier"
    }
    bias_filler {
      type: "constant"
      value: 0
    }
  }
}
layer {
  name: "relu3_3"
  type: "ReLU"
  bottom: "conv3_3"
  top: "conv3_3"
}
layer {
  name: "pool3"
  type: "Pooling"
  bottom: "conv3_3"
  top: "pool3"
  pooling_param {
    pool: MAX
    kernel_size: 2
    stride: 2
  }
}
layer {
  name: "conv4_1"
  type: "Convolution"
  bottom: "pool3"
  top: "conv4_1"
  param {
    lr_mult: 1
    decay_mult: 1
  }
  param {
    lr_mult: 2
    decay_mult: 0
  }
  convolution_param {
    num_output: 512
    pad: 1
    kernel_size: 3
    weight_filler {
      type: "xavier"
    }
    bias_filler {
      type: "constant"
      value: 0
    }
  }
}
layer {
  name: "relu4_1"
  type: "ReLU"
  bottom: "conv4_1"
  top: "conv4_1"
}
layer {
  name: "conv4_2"
  type: "Convolution"
  bottom: "conv4_1"
  top: "conv4_2"
  param {
    lr_mult: 1
    decay_mult: 1
  }
  param {
    lr_mult: 2
    decay_mult: 0
  }
  convolution_param {
    num_output: 512
    pad: 1
    kernel_size: 3
    weight_filler {
      type: "xavier"
    }
    bias_filler {
      type: "constant"
      value: 0
    }
  }
}
layer {
  name: "relu4_2"
  type: "ReLU"
  bottom: "conv4_2"
  top: "conv4_2"
}
layer {
  name: "conv4_3"
  type: "Convolution"
  bottom: "conv4_2"
  top: "conv4_3"
  param {
    lr_mult: 1
    decay_mult: 1
  }
  param {
    lr_mult: 2
    decay_mult: 0
  }
  convolution_param {
    num_output: 512
    pad: 1
    kernel_size: 3
    weight_filler {
      type: "xavier"
    }
    bias_filler {
      type: "constant"
      value: 0
    }
  }
}
layer {
  name: "relu4_3"
  type: "ReLU"
  bottom: "conv4_3"
  top: "conv4_3"
}
layer {
  name: "pool4"
  type: "Pooling"
  bottom: "conv4_3"
  top: "pool4"
  pooling_param {
    pool: MAX
    kernel_size: 2
    stride: 2
  }
}
layer {
  name: "conv5_1"
  type: "Convolution"
  bottom: "pool4"
  top: "conv5_1"
  param {
    lr_mult: 1
    decay_mult: 1
  }
  param {
    lr_mult: 2
    decay_mult: 0
  }
  convolution_param {
    num_output: 512
    pad: 1
    kernel_size: 3
    weight_filler {
      type: "xavier"
    }
    bias_filler {
      type: "constant"
      value: 0
    }
    dilation: 1
  }
}
layer {
  name: "relu5_1"
  type: "ReLU"
  bottom: "conv5_1"
  top: "conv5_1"
}
layer {
  name: "conv5_2"
  type: "Convolution"
  bottom: "conv5_1"
  top: "conv5_2"
  param {
    lr_mult: 1
    decay_mult: 1
  }
  param {
    lr_mult: 2
    decay_mult: 0
  }
  convolution_param {
    num_output: 512
    pad: 1
    kernel_size: 3
    weight_filler {
      type: "xavier"
    }
    bias_filler {
      type: "constant"
      value: 0
    }
    dilation: 1
  }
}
layer {
  name: "relu5_2"
  type: "ReLU"
  bottom: "conv5_2"
  top: "conv5_2"
}
layer {
  name: "conv5_3"
  type: "Convolution"
  bottom: "conv5_2"
  top: "conv5_3"
  param {
    lr_mult: 1
    decay_mult: 1
  }
  param {
    lr_mult: 2
    decay_mult: 0
  }
  convolution_param {
    num_output: 512
    pad: 1
    kernel_size: 3
    weight_filler {
      type: "xavier"
    }
    bias_filler {
      type: "constant"
      value: 0
    }
    dilation: 1
  }
}
layer {
  name: "relu5_3"
  type: "ReLU"
  bottom: "conv5_3"
  top: "conv5_3"
}
layer {
  name: "pool5"
  type: "Pooling"
  bottom: "conv5_3"
  top: "pool5"
  pooling_param {
    pool: MAX
    kernel_size: 3
    stride: 1
    pad: 1
  }
}
layer {
  name: "fc6"
  type: "Convolution"
  bottom: "pool5"
  top: "fc6"
  param {
    lr_mult: 1
    decay_mult: 1
  }
  param {
    lr_mult: 2
    decay_mult: 0
  }
  convolution_param {
    num_output: 1024
    pad: 6
    kernel_size: 3
    weight_filler {
      type: "xavier"
    }
    bias_filler {
      type: "constant"
      value: 0
    }
    dilation: 6
  }
}
layer {
  name: "relu6"
  type: "ReLU"
  bottom: "fc6"
  top: "fc6"
}
layer {
  name: "fc7"
  type: "Convolution"
  bottom: "fc6"
  top: "fc7"
  param {
    lr_mult: 1
    decay_mult: 1
  }
  param {
    lr_mult: 2
    decay_mult: 0
  }
  convolution_param {
    num_output: 1024
    kernel_size: 1
    weight_filler {
      type: "xavier"
    }
    bias_filler {
      type: "constant"
      value: 0
    }
  }
}
layer {
  name: "relu7"
  type: "ReLU"
  bottom: "fc7"
  top: "fc7"
}
layer {
  name: "conv6_1"
  type: "Convolution"
  bottom: "fc7"
  top: "conv6_1"
  param {
    lr_mult: 1
    decay_mult: 1
  }
  param {
    lr_mult: 2
    decay_mult: 0
  }
  convolution_param {
    num_output: 256
    pad: 0
    kernel_size: 1
    stride: 1
    weight_filler {
      type: "xavier"
    }
    bias_filler {
      type: "constant"
      value: 0
    }
  }
}
layer {
  name: "conv6_1_relu"
  type: "ReLU"
  bottom: "conv6_1"
  top: "conv6_1"
}
layer {
  name: "conv6_2"
  type: "Convolution"
  bottom: "conv6_1"
  top: "conv6_2"
  param {
    lr_mult: 1
    decay_mult: 1
  }
  param {
    lr_mult: 2
    decay_mult: 0
  }
  convolution_param {
    num_output: 512
    pad: 1
    kernel_size: 3
    stride: 2
    weight_filler {
      type: "xavier"
    }
    bias_filler {
      type: "constant"
      value: 0
    }
  }
}
layer {
  name: "conv6_2_relu"
  type: "ReLU"
  bottom: "conv6_2"
  top: "conv6_2"
}
layer {
  name: "conv7_1"
  type: "Convolution"
  bottom: "conv6_2"
  top: "conv7_1"
  param {
    lr_mult: 1
    decay_mult: 1
  }
  param {
    lr_mult: 2
    decay_mult: 0
  }
  convolution_param {
    num_output: 128
    pad: 0
    kernel_size: 1
    stride: 1
    weight_filler {
      type: "xavier"
    }
    bias_filler {
      type: "constant"
      value: 0
    }
  }
}
layer {
  name: "conv7_1_relu"
  type: "ReLU"
  bottom: "conv7_1"
  top: "conv7_1"
}
layer {
  name: "conv7_2"
  type: "Convolution"
  bottom: "conv7_1"
  top: "conv7_2"
  param {
    lr_mult: 1
    decay_mult: 1
  }
  param {
    lr_mult: 2
    decay_mult: 0
  }
  convolution_param {
    num_output: 256
    pad: 1
    kernel_size: 3
    stride: 2
    weight_filler {
      type: "xavier"
    }
    bias_filler {
      type: "constant"
      value: 0
    }
  }
}
layer {
  name: "conv7_2_relu"
  type: "ReLU"
  bottom: "conv7_2"
  top: "conv7_2"
}
layer {
  name: "conv8_1"
  type: "Convolution"
  bottom: "conv7_2"
  top: "conv8_1"
  param {
    lr_mult: 1
    decay_mult: 1
  }
  param {
    lr_mult: 2
    decay_mult: 0
  }
  convolution_param {
    num_output: 128
    pad: 0
    kernel_size: 1
    stride: 1
    weight_filler {
      type: "xavier"
    }
    bias_filler {
      type: "constant"
      value: 0
    }
  }
}
layer {
  name: "conv8_1_relu"
  type: "ReLU"
  bottom: "conv8_1"
  top: "conv8_1"
}
layer {
  name: "conv8_2"
  type: "Convolution"
  bottom: "conv8_1"
  top: "conv8_2"
  param {
    lr_mult: 1
    decay_mult: 1
  }
  param {
    lr_mult: 2
    decay_mult: 0
  }
  convolution_param {
    num_output: 256
    pad: 0
    kernel_size: 3
    stride: 1
    weight_filler {
      type: "xavier"
    }
    bias_filler {
      type: "constant"
      value: 0
    }
  }
}
layer {
  name: "conv8_2_relu"
  type: "ReLU"
  bottom: "conv8_2"
  top: "conv8_2"
}
layer {
  name: "conv9_1"
  type: "Convolution"
  bottom: "conv8_2"
  top: "conv9_1"
  param {
    lr_mult: 1
    decay_mult: 1
  }
  param {
    lr_mult: 2
    decay_mult: 0
  }
  convolution_param {
    num_output: 128
    pad: 0
    kernel_size: 1
    stride: 1
    weight_filler {
      type: "xavier"
    }
    bias_filler {
      type: "constant"
      value: 0
    }
  }
}
layer {
  name: "conv9_1_relu"
  type: "ReLU"
  bottom: "conv9_1"
  top: "conv9_1"
}
layer {
  name: "conv9_2"
  type: "Convolution"
  bottom: "conv9_1"
  top: "conv9_2"
  param {
    lr_mult: 1
    decay_mult: 1
  }
  param {
    lr_mult: 2
    decay_mult: 0
  }
  convolution_param {
    num_output: 256
    pad: 0
    kernel_size: 3
    stride: 1
    weight_filler {
      type: "xavier"
    }
    bias_filler {
      type: "constant"
      value: 0
    }
  }
}
layer {
  name: "conv9_2_relu"
  type: "ReLU"
  bottom: "conv9_2"
  top: "conv9_2"
}
layer {
  name: "conv4_3_norm"
  type: "Normalize"
  bottom: "conv4_3"
  top: "conv4_3_norm"
  norm_param {
    across_spatial: false
    scale_filler {
      type: "constant"
      value: 20
    }
    channel_shared: false
  }
}
layer {
  name: "conv4_3_norm_mbox_loc"
  type: "Convolution"
  bottom: "conv4_3_norm"
  top: "conv4_3_norm_mbox_loc"
  param {
    lr_mult: 1
    decay_mult: 1
  }
  param {
    lr_mult: 2
    decay_mult: 0
  }
  convolution_param {
    num_output: 16
    pad: 1
    kernel_size: 3
    stride: 1
    weight_filler {
      type: "xavier"
    }
    bias_filler {
      type: "constant"
      value: 0
    }
  }
}
layer {
  name: "conv4_3_norm_mbox_loc_perm"
  type: "Permute"
  bottom: "conv4_3_norm_mbox_loc"
  top: "conv4_3_norm_mbox_loc_perm"
  permute_param {
    order: 0
    order: 2
    order: 3
    order: 1
  }
}
layer {
  name: "conv4_3_norm_mbox_loc_flat"
  type: "Flatten"
  bottom: "conv4_3_norm_mbox_loc_perm"
  top: "conv4_3_norm_mbox_loc_flat"
  flatten_param {
    axis: 1
  }
}
layer {
  name: "conv4_3_norm_mbox_conf"
  type: "Convolution"
  bottom: "conv4_3_norm"
  top: "conv4_3_norm_mbox_conf"
  param {
    lr_mult: 1
    decay_mult: 1
  }
  param {
    lr_mult: 2
    decay_mult: 0
  }
  convolution_param {
    num_output: 8
    pad: 1
    kernel_size: 3
    stride: 1
    weight_filler {
      type: "xavier"
    }
    bias_filler {
      type: "constant"
      value: 0
    }
  }
}
layer {
  name: "conv4_3_norm_mbox_conf_perm"
  type: "Permute"
  bottom: "conv4_3_norm_mbox_conf"
  top: "conv4_3_norm_mbox_conf_perm"
  permute_param {
    order: 0
    order: 2
    order: 3
    order: 1
  }
}
layer {
  name: "conv4_3_norm_mbox_conf_flat"
  type: "Flatten"
  bottom: "conv4_3_norm_mbox_conf_perm"
  top: "conv4_3_norm_mbox_conf_flat"
  flatten_param {
    axis: 1
  }
}
layer {
  name: "conv4_3_norm_mbox_priorbox"
  type: "PriorBox"
  bottom: "conv4_3_norm"
  bottom: "data"
  top: "conv4_3_norm_mbox_priorbox"
  prior_box_param {
    min_size: 30
    max_size: 60
    aspect_ratio: 2
    flip: true
    clip: false
    variance: 0.1
    variance: 0.1
    variance: 0.2
    variance: 0.2
    step: 8
    offset: 0.5
  }
}
layer {
  name: "fc7_mbox_loc"
  type: "Convolution"
  bottom: "fc7"
  top: "fc7_mbox_loc"
  param {
    lr_mult: 1
    decay_mult: 1
  }
  param {
    lr_mult: 2
    decay_mult: 0
  }
  convolution_param {
    num_output: 24
    pad: 1
    kernel_size: 3
    stride: 1
    weight_filler {
      type: "xavier"
    }
    bias_filler {
      type: "constant"
      value: 0
    }
  }
}
layer {
  name: "fc7_mbox_loc_perm"
  type: "Permute"
  bottom: "fc7_mbox_loc"
  top: "fc7_mbox_loc_perm"
  permute_param {
    order: 0
    order: 2
    order: 3
    order: 1
  }
}
layer {
  name: "fc7_mbox_loc_flat"
  type: "Flatten"
  bottom: "fc7_mbox_loc_perm"
  top: "fc7_mbox_loc_flat"
  flatten_param {
    axis: 1
  }
}
layer {
  name: "fc7_mbox_conf"
  type: "Convolution"
  bottom: "fc7"
  top: "fc7_mbox_conf"
  param {
    lr_mult: 1
    decay_mult: 1
  }
  param {
    lr_mult: 2
    decay_mult: 0
  }
  convolution_param {
    num_output: 12
    pad: 1
    kernel_size: 3
    stride: 1
    weight_filler {
      type: "xavier"
    }
    bias_filler {
      type: "constant"
      value: 0
    }
  }
}
layer {
  name: "fc7_mbox_conf_perm"
  type: "Permute"
  bottom: "fc7_mbox_conf"
  top: "fc7_mbox_conf_perm"
  permute_param {
    order: 0
    order: 2
    order: 3
    order: 1
  }
}
layer {
  name: "fc7_mbox_conf_flat"
  type: "Flatten"
  bottom: "fc7_mbox_conf_perm"
  top: "fc7_mbox_conf_flat"
  flatten_param {
    axis: 1
  }
}
layer {
  name: "fc7_mbox_priorbox"
  type: "PriorBox"
  bottom: "fc7"
  bottom: "data"
  top: "fc7_mbox_priorbox"
  prior_box_param {
    min_size: 60
    max_size: 111
    aspect_ratio: 2
    aspect_ratio: 3
    flip: true
    clip: false
    variance: 0.1
    variance: 0.1
    variance: 0.2
    variance: 0.2
    step: 16
    offset: 0.5
  }
}
layer {
  name: "conv6_2_mbox_loc"
  type: "Convolution"
  bottom: "conv6_2"
  top: "conv6_2_mbox_loc"
  param {
    lr_mult: 1
    decay_mult: 1
  }
  param {
    lr_mult: 2
    decay_mult: 0
  }
  convolution_param {
    num_output: 24
    pad: 1
    kernel_size: 3
    stride: 1
    weight_filler {
      type: "xavier"
    }
    bias_filler {
      type: "constant"
      value: 0
    }
  }
}
layer {
  name: "conv6_2_mbox_loc_perm"
  type: "Permute"
  bottom: "conv6_2_mbox_loc"
  top: "conv6_2_mbox_loc_perm"
  permute_param {
    order: 0
    order: 2
    order: 3
    order: 1
  }
}
layer {
  name: "conv6_2_mbox_loc_flat"
  type: "Flatten"
  bottom: "conv6_2_mbox_loc_perm"
  top: "conv6_2_mbox_loc_flat"
  flatten_param {
    axis: 1
  }
}
layer {
  name: "conv6_2_mbox_conf"
  type: "Convolution"
  bottom: "conv6_2"
  top: "conv6_2_mbox_conf"
  param {
    lr_mult: 1
    decay_mult: 1
  }
  param {
    lr_mult: 2
    decay_mult: 0
  }
  convolution_param {
    num_output: 12
    pad: 1
    kernel_size: 3
    stride: 1
    weight_filler {
      type: "xavier"
    }
    bias_filler {
      type: "constant"
      value: 0
    }
  }
}
layer {
  name: "conv6_2_mbox_conf_perm"
  type: "Permute"
  bottom: "conv6_2_mbox_conf"
  top: "conv6_2_mbox_conf_perm"
  permute_param {
    order: 0
    order: 2
    order: 3
    order: 1
  }
}
layer {
  name: "conv6_2_mbox_conf_flat"
  type: "Flatten"
  bottom: "conv6_2_mbox_conf_perm"
  top: "conv6_2_mbox_conf_flat"
  flatten_param {
    axis: 1
  }
}
layer {
  name: "conv6_2_mbox_priorbox"
  type: "PriorBox"
  bottom: "conv6_2"
  bottom: "data"
  top: "conv6_2_mbox_priorbox"
  prior_box_param {
    min_size: 111
    max_size: 162
    aspect_ratio: 2
    aspect_ratio: 3
    flip: true
    clip: false
    variance: 0.1
    variance: 0.1
    variance: 0.2
    variance: 0.2
    step: 32
    offset: 0.5
  }
}
layer {
  name: "conv7_2_mbox_loc"
  type: "Convolution"
  bottom: "conv7_2"
  top: "conv7_2_mbox_loc"
  param {
    lr_mult: 1
    decay_mult: 1
  }
  param {
    lr_mult: 2
    decay_mult: 0
  }
  convolution_param {
    num_output: 24
    pad: 1
    kernel_size: 3
    stride: 1
    weight_filler {
      type: "xavier"
    }
    bias_filler {
      type: "constant"
      value: 0
    }
  }
}
layer {
  name: "conv7_2_mbox_loc_perm"
  type: "Permute"
  bottom: "conv7_2_mbox_loc"
  top: "conv7_2_mbox_loc_perm"
  permute_param {
    order: 0
    order: 2
    order: 3
    order: 1
  }
}
layer {
  name: "conv7_2_mbox_loc_flat"
  type: "Flatten"
  bottom: "conv7_2_mbox_loc_perm"
  top: "conv7_2_mbox_loc_flat"
  flatten_param {
    axis: 1
  }
}
layer {
  name: "conv7_2_mbox_conf"
  type: "Convolution"
  bottom: "conv7_2"
  top: "conv7_2_mbox_conf"
  param {
    lr_mult: 1
    decay_mult: 1
  }
  param {
    lr_mult: 2
    decay_mult: 0
  }
  convolution_param {
    num_output: 12
    pad: 1
    kernel_size: 3
    stride: 1
    weight_filler {
      type: "xavier"
    }
    bias_filler {
      type: "constant"
      value: 0
    }
  }
}
layer {
  name: "conv7_2_mbox_conf_perm"
  type: "Permute"
  bottom: "conv7_2_mbox_conf"
  top: "conv7_2_mbox_conf_perm"
  permute_param {
    order: 0
    order: 2
    order: 3
    order: 1
  }
}
layer {
  name: "conv7_2_mbox_conf_flat"
  type: "Flatten"
  bottom: "conv7_2_mbox_conf_perm"
  top: "conv7_2_mbox_conf_flat"
  flatten_param {
    axis: 1
  }
}
layer {
  name: "conv7_2_mbox_priorbox"
  type: "PriorBox"
  bottom: "conv7_2"
  bottom: "data"
  top: "conv7_2_mbox_priorbox"
  prior_box_param {
    min_size: 162
    max_size: 213
    aspect_ratio: 2
    aspect_ratio: 3
    flip: true
    clip: false
    variance: 0.1
    variance: 0.1
    variance: 0.2
    variance: 0.2
    step: 64
    offset: 0.5
  }
}
layer {
  name: "conv8_2_mbox_loc"
  type: "Convolution"
  bottom: "conv8_2"
  top: "conv8_2_mbox_loc"
  param {
    lr_mult: 1
    decay_mult: 1
  }
  param {
    lr_mult: 2
    decay_mult: 0
  }
  convolution_param {
    num_output: 16
    pad: 1
    kernel_size: 3
    stride: 1
    weight_filler {
      type: "xavier"
    }
    bias_filler {
      type: "constant"
      value: 0
    }
  }
}
layer {
  name: "conv8_2_mbox_loc_perm"
  type: "Permute"
  bottom: "conv8_2_mbox_loc"
  top: "conv8_2_mbox_loc_perm"
  permute_param {
    order: 0
    order: 2
    order: 3
    order: 1
  }
}
layer {
  name: "conv8_2_mbox_loc_flat"
  type: "Flatten"
  bottom: "conv8_2_mbox_loc_perm"
  top: "conv8_2_mbox_loc_flat"
  flatten_param {
    axis: 1
  }
}
layer {
  name: "conv8_2_mbox_conf"
  type: "Convolution"
  bottom: "conv8_2"
  top: "conv8_2_mbox_conf"
  param {
    lr_mult: 1
    decay_mult: 1
  }
  param {
    lr_mult: 2
    decay_mult: 0
  }
  convolution_param {
    num_output: 8
    pad: 1
    kernel_size: 3
    stride: 1
    weight_filler {
      type: "xavier"
    }
    bias_filler {
      type: "constant"
      value: 0
    }
  }
}
layer {
  name: "conv8_2_mbox_conf_perm"
  type: "Permute"
  bottom: "conv8_2_mbox_conf"
  top: "conv8_2_mbox_conf_perm"
  permute_param {
    order: 0
    order: 2
    order: 3
    order: 1
  }
}
layer {
  name: "conv8_2_mbox_conf_flat"
  type: "Flatten"
  bottom: "conv8_2_mbox_conf_perm"
  top: "conv8_2_mbox_conf_flat"
  flatten_param {
    axis: 1
  }
}
layer {
  name: "conv8_2_mbox_priorbox"
  type: "PriorBox"
  bottom: "conv8_2"
  bottom: "data"
  top: "conv8_2_mbox_priorbox"
  prior_box_param {
    min_size: 213
    max_size: 264
    aspect_ratio: 2
    flip: true
    clip: false
    variance: 0.1
    variance: 0.1
    variance: 0.2
    variance: 0.2
    step: 100
    offset: 0.5
  }
}
layer {
  name: "conv9_2_mbox_loc"
  type: "Convolution"
  bottom: "conv9_2"
  top: "conv9_2_mbox_loc"
  param {
    lr_mult: 1
    decay_mult: 1
  }
  param {
    lr_mult: 2
    decay_mult: 0
  }
  convolution_param {
    num_output: 16
    pad: 1
    kernel_size: 3
    stride: 1
    weight_filler {
      type: "xavier"
    }
    bias_filler {
      type: "constant"
      value: 0
    }
  }
}
layer {
  name: "conv9_2_mbox_loc_perm"
  type: "Permute"
  bottom: "conv9_2_mbox_loc"
  top: "conv9_2_mbox_loc_perm"
  permute_param {
    order: 0
    order: 2
    order: 3
    order: 1
  }
}
layer {
  name: "conv9_2_mbox_loc_flat"
  type: "Flatten"
  bottom: "conv9_2_mbox_loc_perm"
  top: "conv9_2_mbox_loc_flat"
  flatten_param {
    axis: 1
  }
}
layer {
  name: "conv9_2_mbox_conf"
  type: "Convolution"
  bottom: "conv9_2"
  top: "conv9_2_mbox_conf"
  param {
    lr_mult: 1
    decay_mult: 1
  }
  param {
    lr_mult: 2
    decay_mult: 0
  }
  convolution_param {
    num_output: 8
    pad: 1
    kernel_size: 3
    stride: 1
    weight_filler {
      type: "xavier"
    }
    bias_filler {
      type: "constant"
      value: 0
    }
  }
}
layer {
  name: "conv9_2_mbox_conf_perm"
  type: "Permute"
  bottom: "conv9_2_mbox_conf"
  top: "conv9_2_mbox_conf_perm"
  permute_param {
    order: 0
    order: 2
    order: 3
    order: 1
  }
}
layer {
  name: "conv9_2_mbox_conf_flat"
  type: "Flatten"
  bottom: "conv9_2_mbox_conf_perm"
  top: "conv9_2_mbox_conf_flat"
  flatten_param {
    axis: 1
  }
}
layer {
  name: "conv9_2_mbox_priorbox"
  type: "PriorBox"
  bottom: "conv9_2"
  bottom: "data"
  top: "conv9_2_mbox_priorbox"
  prior_box_param {
    min_size: 264
    max_size: 315
    aspect_ratio: 2
    flip: true
    clip: false
    variance: 0.1
    variance: 0.1
    variance: 0.2
    variance: 0.2
    step: 300
    offset: 0.5
  }
}
layer {
  name: "mbox_loc"
  type: "Concat"
  bottom: "conv4_3_norm_mbox_loc_flat"
  bottom: "fc7_mbox_loc_flat"
  bottom: "conv6_2_mbox_loc_flat"
  bottom: "conv7_2_mbox_loc_flat"
  bottom: "conv8_2_mbox_loc_flat"
  bottom: "conv9_2_mbox_loc_flat"
  top: "mbox_loc"
  concat_param {
    axis: 1
  }
}
layer {
  name: "mbox_conf"
  type: "Concat"
  bottom: "conv4_3_norm_mbox_conf_flat"
  bottom: "fc7_mbox_conf_flat"
  bottom: "conv6_2_mbox_conf_flat"
  bottom: "conv7_2_mbox_conf_flat"
  bottom: "conv8_2_mbox_conf_flat"
  bottom: "conv9_2_mbox_conf_flat"
  top: "mbox_conf"
  concat_param {
    axis: 1
  }
}
layer {
  name: "mbox_priorbox"
  type: "Concat"
  bottom: "conv4_3_norm_mbox_priorbox"
  bottom: "fc7_mbox_priorbox"
  bottom: "conv6_2_mbox_priorbox"
  bottom: "conv7_2_mbox_priorbox"
  bottom: "conv8_2_mbox_priorbox"
  bottom: "conv9_2_mbox_priorbox"
  top: "mbox_priorbox"
  concat_param {
    axis: 2
  }
}
layer {
  name: "mbox_conf_reshape"
  type: "Reshape"
  bottom: "mbox_conf"
  top: "mbox_conf_reshape"
  reshape_param {
    shape {
      dim: 0
      dim: -1
      dim: 2
    }
  }
}
layer {
  name: "mbox_conf_softmax"
  type: "Softmax"
  bottom: "mbox_conf_reshape"
  top: "mbox_conf_softmax"
  softmax_param {
    axis: 2
  }
}
layer {
  name: "mbox_conf_flatten"
  type: "Flatten"
  bottom: "mbox_conf_softmax"
  top: "mbox_conf_flatten"
  flatten_param {
    axis: 1
  }
}
layer {
  name: "detection_out"
  type: "DetectionOutput"
  bottom: "mbox_loc"
  bottom: "mbox_conf_flatten"
  bottom: "mbox_priorbox"
  top: "detection_out"
  include {
    phase: TEST
  }
  detection_output_param {
    num_classes: 2
    share_location: true
    background_label_id: 0
    nms_param {
      nms_threshold: 0.45
      top_k: 400
    }
    save_output_param {
      output_directory: "/home/pinchen/ssd/caffe/output/VGGNet/PlateDetection/SSD_512x512"
      output_name_prefix: "comp4_det_test_"
      output_format: "VOC"
      label_map_file: "/home/pinchen/ssd/caffe/data/PlateDetection/labelmap.prototxt"
      name_size_file: "/home/pinchen/ssd/caffe/data/PlateDetection/test_name_size.txt"
      num_test_image: 3600
    }
    code_type: CENTER_SIZE
    keep_top_k: 200
    confidence_threshold: 0.01
  }
}
layer {
  name: "detection_eval"
  type: "DetectionEvaluate"
  bottom: "detection_out"
  bottom: "label"
  top: "detection_eval"
  include {
    phase: TEST
  }
  detection_evaluate_param {
    num_classes: 2
    background_label_id: 0
    overlap_threshold: 0.5
    evaluate_difficult_gt: false
    name_size_file: "/home/pinchen/ssd/caffe/data/PlateDetection/test_name_size.txt"
  }
}
I0329 19:57:22.119138 12993 layer_factory.hpp:77] Creating layer data
I0329 19:57:22.119261 12993 net.cpp:100] Creating Layer data
I0329 19:57:22.119280 12993 net.cpp:408] data -> data
I0329 19:57:22.119299 12993 net.cpp:408] data -> label
I0329 19:57:22.122157 13006 db_lmdb.cpp:35] Opened lmdb /home/pinchen/ssd/caffe/data/PlateDetection/lmdb/PlateDetection_test_lmdb
I0329 19:57:22.149284 12993 annotated_data_layer.cpp:62] output data size: 8,3,512,512
I0329 19:57:22.214973 12993 net.cpp:150] Setting up data
I0329 19:57:22.215044 12993 net.cpp:157] Top shape: 8 3 512 512 (6291456)
I0329 19:57:22.215064 12993 net.cpp:157] Top shape: 1 1 1 8 (8)
I0329 19:57:22.215075 12993 net.cpp:165] Memory required for data: 25165856
I0329 19:57:22.215097 12993 layer_factory.hpp:77] Creating layer data_data_0_split
I0329 19:57:22.215134 12993 net.cpp:100] Creating Layer data_data_0_split
I0329 19:57:22.215149 12993 net.cpp:434] data_data_0_split <- data
I0329 19:57:22.215175 12993 net.cpp:408] data_data_0_split -> data_data_0_split_0
I0329 19:57:22.215205 12993 net.cpp:408] data_data_0_split -> data_data_0_split_1
I0329 19:57:22.215226 12993 net.cpp:408] data_data_0_split -> data_data_0_split_2
I0329 19:57:22.215248 12993 net.cpp:408] data_data_0_split -> data_data_0_split_3
I0329 19:57:22.215267 12993 net.cpp:408] data_data_0_split -> data_data_0_split_4
I0329 19:57:22.215287 12993 net.cpp:408] data_data_0_split -> data_data_0_split_5
I0329 19:57:22.215306 12993 net.cpp:408] data_data_0_split -> data_data_0_split_6
I0329 19:57:22.215487 12993 net.cpp:150] Setting up data_data_0_split
I0329 19:57:22.215510 12993 net.cpp:157] Top shape: 8 3 512 512 (6291456)
I0329 19:57:22.215528 12993 net.cpp:157] Top shape: 8 3 512 512 (6291456)
I0329 19:57:22.215544 12993 net.cpp:157] Top shape: 8 3 512 512 (6291456)
I0329 19:57:22.215605 12993 net.cpp:157] Top shape: 8 3 512 512 (6291456)
I0329 19:57:22.215623 12993 net.cpp:157] Top shape: 8 3 512 512 (6291456)
I0329 19:57:22.215639 12993 net.cpp:157] Top shape: 8 3 512 512 (6291456)
I0329 19:57:22.215657 12993 net.cpp:157] Top shape: 8 3 512 512 (6291456)
I0329 19:57:22.215669 12993 net.cpp:165] Memory required for data: 201326624
I0329 19:57:22.215679 12993 layer_factory.hpp:77] Creating layer conv1_1
I0329 19:57:22.215708 12993 net.cpp:100] Creating Layer conv1_1
I0329 19:57:22.215716 12993 net.cpp:434] conv1_1 <- data_data_0_split_0
I0329 19:57:22.215729 12993 net.cpp:408] conv1_1 -> conv1_1
I0329 19:57:22.217172 12993 net.cpp:150] Setting up conv1_1
I0329 19:57:22.217197 12993 net.cpp:157] Top shape: 8 64 512 512 (134217728)
I0329 19:57:22.217211 12993 net.cpp:165] Memory required for data: 738197536
I0329 19:57:22.217244 12993 layer_factory.hpp:77] Creating layer relu1_1
I0329 19:57:22.217267 12993 net.cpp:100] Creating Layer relu1_1
I0329 19:57:22.217283 12993 net.cpp:434] relu1_1 <- conv1_1
I0329 19:57:22.217303 12993 net.cpp:395] relu1_1 -> conv1_1 (in-place)
I0329 19:57:22.217324 12993 net.cpp:150] Setting up relu1_1
I0329 19:57:22.217340 12993 net.cpp:157] Top shape: 8 64 512 512 (134217728)
I0329 19:57:22.217353 12993 net.cpp:165] Memory required for data: 1275068448
I0329 19:57:22.217368 12993 layer_factory.hpp:77] Creating layer conv1_2
I0329 19:57:22.217396 12993 net.cpp:100] Creating Layer conv1_2
I0329 19:57:22.217409 12993 net.cpp:434] conv1_2 <- conv1_1
I0329 19:57:22.217432 12993 net.cpp:408] conv1_2 -> conv1_2
I0329 19:57:22.219162 12993 net.cpp:150] Setting up conv1_2
I0329 19:57:22.219187 12993 net.cpp:157] Top shape: 8 64 512 512 (134217728)
I0329 19:57:22.219202 12993 net.cpp:165] Memory required for data: 1811939360
I0329 19:57:22.219228 12993 layer_factory.hpp:77] Creating layer relu1_2
I0329 19:57:22.219247 12993 net.cpp:100] Creating Layer relu1_2
I0329 19:57:22.219259 12993 net.cpp:434] relu1_2 <- conv1_2
I0329 19:57:22.219280 12993 net.cpp:395] relu1_2 -> conv1_2 (in-place)
I0329 19:57:22.219298 12993 net.cpp:150] Setting up relu1_2
I0329 19:57:22.219314 12993 net.cpp:157] Top shape: 8 64 512 512 (134217728)
I0329 19:57:22.219326 12993 net.cpp:165] Memory required for data: 2348810272
I0329 19:57:22.219339 12993 layer_factory.hpp:77] Creating layer pool1
I0329 19:57:22.219360 12993 net.cpp:100] Creating Layer pool1
I0329 19:57:22.219373 12993 net.cpp:434] pool1 <- conv1_2
I0329 19:57:22.219393 12993 net.cpp:408] pool1 -> pool1
I0329 19:57:22.219458 12993 net.cpp:150] Setting up pool1
I0329 19:57:22.219480 12993 net.cpp:157] Top shape: 8 64 256 256 (33554432)
I0329 19:57:22.219494 12993 net.cpp:165] Memory required for data: 2483028000
I0329 19:57:22.219507 12993 layer_factory.hpp:77] Creating layer conv2_1
I0329 19:57:22.219535 12993 net.cpp:100] Creating Layer conv2_1
I0329 19:57:22.219549 12993 net.cpp:434] conv2_1 <- pool1
I0329 19:57:22.219573 12993 net.cpp:408] conv2_1 -> conv2_1
I0329 19:57:22.220551 12993 net.cpp:150] Setting up conv2_1
I0329 19:57:22.220573 12993 net.cpp:157] Top shape: 8 128 256 256 (67108864)
I0329 19:57:22.220600 12993 net.cpp:165] Memory required for data: 2751463456
I0329 19:57:22.220628 12993 layer_factory.hpp:77] Creating layer relu2_1
I0329 19:57:22.220649 12993 net.cpp:100] Creating Layer relu2_1
I0329 19:57:22.220660 12993 net.cpp:434] relu2_1 <- conv2_1
I0329 19:57:22.220680 12993 net.cpp:395] relu2_1 -> conv2_1 (in-place)
I0329 19:57:22.220698 12993 net.cpp:150] Setting up relu2_1
I0329 19:57:22.220715 12993 net.cpp:157] Top shape: 8 128 256 256 (67108864)
I0329 19:57:22.220727 12993 net.cpp:165] Memory required for data: 3019898912
I0329 19:57:22.220741 12993 layer_factory.hpp:77] Creating layer conv2_2
I0329 19:57:22.220767 12993 net.cpp:100] Creating Layer conv2_2
I0329 19:57:22.220778 12993 net.cpp:434] conv2_2 <- conv2_1
I0329 19:57:22.220801 12993 net.cpp:408] conv2_2 -> conv2_2
I0329 19:57:22.224234 12993 net.cpp:150] Setting up conv2_2
I0329 19:57:22.224261 12993 net.cpp:157] Top shape: 8 128 256 256 (67108864)
I0329 19:57:22.224298 12993 net.cpp:165] Memory required for data: 3288334368
I0329 19:57:22.224323 12993 layer_factory.hpp:77] Creating layer relu2_2
I0329 19:57:22.224347 12993 net.cpp:100] Creating Layer relu2_2
I0329 19:57:22.224360 12993 net.cpp:434] relu2_2 <- conv2_2
I0329 19:57:22.224380 12993 net.cpp:395] relu2_2 -> conv2_2 (in-place)
I0329 19:57:22.224400 12993 net.cpp:150] Setting up relu2_2
I0329 19:57:22.224417 12993 net.cpp:157] Top shape: 8 128 256 256 (67108864)
I0329 19:57:22.224428 12993 net.cpp:165] Memory required for data: 3556769824
I0329 19:57:22.224443 12993 layer_factory.hpp:77] Creating layer pool2
I0329 19:57:22.224463 12993 net.cpp:100] Creating Layer pool2
I0329 19:57:22.224475 12993 net.cpp:434] pool2 <- conv2_2
I0329 19:57:22.224495 12993 net.cpp:408] pool2 -> pool2
I0329 19:57:22.224560 12993 net.cpp:150] Setting up pool2
I0329 19:57:22.224587 12993 net.cpp:157] Top shape: 8 128 128 128 (16777216)
I0329 19:57:22.224599 12993 net.cpp:165] Memory required for data: 3623878688
I0329 19:57:22.224614 12993 layer_factory.hpp:77] Creating layer conv3_1
I0329 19:57:22.224640 12993 net.cpp:100] Creating Layer conv3_1
I0329 19:57:22.224653 12993 net.cpp:434] conv3_1 <- pool2
I0329 19:57:22.224676 12993 net.cpp:408] conv3_1 -> conv3_1
I0329 19:57:22.228508 12993 net.cpp:150] Setting up conv3_1
I0329 19:57:22.228533 12993 net.cpp:157] Top shape: 8 256 128 128 (33554432)
I0329 19:57:22.228547 12993 net.cpp:165] Memory required for data: 3758096416
I0329 19:57:22.228579 12993 layer_factory.hpp:77] Creating layer relu3_1
I0329 19:57:22.228598 12993 net.cpp:100] Creating Layer relu3_1
I0329 19:57:22.228612 12993 net.cpp:434] relu3_1 <- conv3_1
I0329 19:57:22.228632 12993 net.cpp:395] relu3_1 -> conv3_1 (in-place)
I0329 19:57:22.228652 12993 net.cpp:150] Setting up relu3_1
I0329 19:57:22.228668 12993 net.cpp:157] Top shape: 8 256 128 128 (33554432)
I0329 19:57:22.228679 12993 net.cpp:165] Memory required for data: 3892314144
I0329 19:57:22.228694 12993 layer_factory.hpp:77] Creating layer conv3_2
I0329 19:57:22.228720 12993 net.cpp:100] Creating Layer conv3_2
I0329 19:57:22.228732 12993 net.cpp:434] conv3_2 <- conv3_1
I0329 19:57:22.228754 12993 net.cpp:408] conv3_2 -> conv3_2
I0329 19:57:22.235889 12993 net.cpp:150] Setting up conv3_2
I0329 19:57:22.235918 12993 net.cpp:157] Top shape: 8 256 128 128 (33554432)
I0329 19:57:22.235931 12993 net.cpp:165] Memory required for data: 4026531872
I0329 19:57:22.235956 12993 layer_factory.hpp:77] Creating layer relu3_2
I0329 19:57:22.235975 12993 net.cpp:100] Creating Layer relu3_2
I0329 19:57:22.235988 12993 net.cpp:434] relu3_2 <- conv3_2
I0329 19:57:22.236008 12993 net.cpp:395] relu3_2 -> conv3_2 (in-place)
I0329 19:57:22.236027 12993 net.cpp:150] Setting up relu3_2
I0329 19:57:22.236043 12993 net.cpp:157] Top shape: 8 256 128 128 (33554432)
I0329 19:57:22.236055 12993 net.cpp:165] Memory required for data: 4160749600
I0329 19:57:22.236070 12993 layer_factory.hpp:77] Creating layer conv3_3
I0329 19:57:22.236099 12993 net.cpp:100] Creating Layer conv3_3
I0329 19:57:22.236111 12993 net.cpp:434] conv3_3 <- conv3_2
I0329 19:57:22.236135 12993 net.cpp:408] conv3_3 -> conv3_3
I0329 19:57:22.243082 12993 net.cpp:150] Setting up conv3_3
I0329 19:57:22.243108 12993 net.cpp:157] Top shape: 8 256 128 128 (33554432)
I0329 19:57:22.243121 12993 net.cpp:165] Memory required for data: 4294967328
I0329 19:57:22.243146 12993 layer_factory.hpp:77] Creating layer relu3_3
I0329 19:57:22.243165 12993 net.cpp:100] Creating Layer relu3_3
I0329 19:57:22.243177 12993 net.cpp:434] relu3_3 <- conv3_3
I0329 19:57:22.243197 12993 net.cpp:395] relu3_3 -> conv3_3 (in-place)
I0329 19:57:22.243216 12993 net.cpp:150] Setting up relu3_3
I0329 19:57:22.243232 12993 net.cpp:157] Top shape: 8 256 128 128 (33554432)
I0329 19:57:22.243244 12993 net.cpp:165] Memory required for data: 4429185056
I0329 19:57:22.243259 12993 layer_factory.hpp:77] Creating layer pool3
I0329 19:57:22.243279 12993 net.cpp:100] Creating Layer pool3
I0329 19:57:22.243291 12993 net.cpp:434] pool3 <- conv3_3
I0329 19:57:22.243340 12993 net.cpp:408] pool3 -> pool3
I0329 19:57:22.243407 12993 net.cpp:150] Setting up pool3
I0329 19:57:22.243427 12993 net.cpp:157] Top shape: 8 256 64 64 (8388608)
I0329 19:57:22.243440 12993 net.cpp:165] Memory required for data: 4462739488
I0329 19:57:22.243454 12993 layer_factory.hpp:77] Creating layer conv4_1
I0329 19:57:22.243481 12993 net.cpp:100] Creating Layer conv4_1
I0329 19:57:22.243504 12993 net.cpp:434] conv4_1 <- pool3
I0329 19:57:22.243526 12993 net.cpp:408] conv4_1 -> conv4_1
I0329 19:57:22.256868 12993 net.cpp:150] Setting up conv4_1
I0329 19:57:22.256901 12993 net.cpp:157] Top shape: 8 512 64 64 (16777216)
I0329 19:57:22.256913 12993 net.cpp:165] Memory required for data: 4529848352
I0329 19:57:22.256935 12993 layer_factory.hpp:77] Creating layer relu4_1
I0329 19:57:22.256955 12993 net.cpp:100] Creating Layer relu4_1
I0329 19:57:22.256968 12993 net.cpp:434] relu4_1 <- conv4_1
I0329 19:57:22.256989 12993 net.cpp:395] relu4_1 -> conv4_1 (in-place)
I0329 19:57:22.257007 12993 net.cpp:150] Setting up relu4_1
I0329 19:57:22.257023 12993 net.cpp:157] Top shape: 8 512 64 64 (16777216)
I0329 19:57:22.257035 12993 net.cpp:165] Memory required for data: 4596957216
I0329 19:57:22.257050 12993 layer_factory.hpp:77] Creating layer conv4_2
I0329 19:57:22.257077 12993 net.cpp:100] Creating Layer conv4_2
I0329 19:57:22.257091 12993 net.cpp:434] conv4_2 <- conv4_1
I0329 19:57:22.257112 12993 net.cpp:408] conv4_2 -> conv4_2
I0329 19:57:22.283260 12993 net.cpp:150] Setting up conv4_2
I0329 19:57:22.283320 12993 net.cpp:157] Top shape: 8 512 64 64 (16777216)
I0329 19:57:22.283334 12993 net.cpp:165] Memory required for data: 4664066080
I0329 19:57:22.283372 12993 layer_factory.hpp:77] Creating layer relu4_2
I0329 19:57:22.283403 12993 net.cpp:100] Creating Layer relu4_2
I0329 19:57:22.283419 12993 net.cpp:434] relu4_2 <- conv4_2
I0329 19:57:22.283442 12993 net.cpp:395] relu4_2 -> conv4_2 (in-place)
I0329 19:57:22.283466 12993 net.cpp:150] Setting up relu4_2
I0329 19:57:22.283483 12993 net.cpp:157] Top shape: 8 512 64 64 (16777216)
I0329 19:57:22.283495 12993 net.cpp:165] Memory required for data: 4731174944
I0329 19:57:22.283510 12993 layer_factory.hpp:77] Creating layer conv4_3
I0329 19:57:22.283541 12993 net.cpp:100] Creating Layer conv4_3
I0329 19:57:22.283553 12993 net.cpp:434] conv4_3 <- conv4_2
I0329 19:57:22.283581 12993 net.cpp:408] conv4_3 -> conv4_3
I0329 19:57:22.310066 12993 net.cpp:150] Setting up conv4_3
I0329 19:57:22.310118 12993 net.cpp:157] Top shape: 8 512 64 64 (16777216)
I0329 19:57:22.310132 12993 net.cpp:165] Memory required for data: 4798283808
I0329 19:57:22.310155 12993 layer_factory.hpp:77] Creating layer relu4_3
I0329 19:57:22.310184 12993 net.cpp:100] Creating Layer relu4_3
I0329 19:57:22.310199 12993 net.cpp:434] relu4_3 <- conv4_3
I0329 19:57:22.310221 12993 net.cpp:395] relu4_3 -> conv4_3 (in-place)
I0329 19:57:22.310245 12993 net.cpp:150] Setting up relu4_3
I0329 19:57:22.310261 12993 net.cpp:157] Top shape: 8 512 64 64 (16777216)
I0329 19:57:22.310272 12993 net.cpp:165] Memory required for data: 4865392672
I0329 19:57:22.310287 12993 layer_factory.hpp:77] Creating layer conv4_3_relu4_3_0_split
I0329 19:57:22.310307 12993 net.cpp:100] Creating Layer conv4_3_relu4_3_0_split
I0329 19:57:22.310319 12993 net.cpp:434] conv4_3_relu4_3_0_split <- conv4_3
I0329 19:57:22.310340 12993 net.cpp:408] conv4_3_relu4_3_0_split -> conv4_3_relu4_3_0_split_0
I0329 19:57:22.310362 12993 net.cpp:408] conv4_3_relu4_3_0_split -> conv4_3_relu4_3_0_split_1
I0329 19:57:22.310423 12993 net.cpp:150] Setting up conv4_3_relu4_3_0_split
I0329 19:57:22.310443 12993 net.cpp:157] Top shape: 8 512 64 64 (16777216)
I0329 19:57:22.310461 12993 net.cpp:157] Top shape: 8 512 64 64 (16777216)
I0329 19:57:22.310474 12993 net.cpp:165] Memory required for data: 4999610400
I0329 19:57:22.310489 12993 layer_factory.hpp:77] Creating layer pool4
I0329 19:57:22.310511 12993 net.cpp:100] Creating Layer pool4
I0329 19:57:22.310523 12993 net.cpp:434] pool4 <- conv4_3_relu4_3_0_split_0
I0329 19:57:22.310544 12993 net.cpp:408] pool4 -> pool4
I0329 19:57:22.310657 12993 net.cpp:150] Setting up pool4
I0329 19:57:22.310679 12993 net.cpp:157] Top shape: 8 512 32 32 (4194304)
I0329 19:57:22.310694 12993 net.cpp:165] Memory required for data: 5016387616
I0329 19:57:22.310708 12993 layer_factory.hpp:77] Creating layer conv5_1
I0329 19:57:22.310737 12993 net.cpp:100] Creating Layer conv5_1
I0329 19:57:22.310750 12993 net.cpp:434] conv5_1 <- pool4
I0329 19:57:22.310778 12993 net.cpp:408] conv5_1 -> conv5_1
I0329 19:57:22.336848 12993 net.cpp:150] Setting up conv5_1
I0329 19:57:22.336902 12993 net.cpp:157] Top shape: 8 512 32 32 (4194304)
I0329 19:57:22.336915 12993 net.cpp:165] Memory required for data: 5033164832
I0329 19:57:22.336941 12993 layer_factory.hpp:77] Creating layer relu5_1
I0329 19:57:22.336971 12993 net.cpp:100] Creating Layer relu5_1
I0329 19:57:22.336987 12993 net.cpp:434] relu5_1 <- conv5_1
I0329 19:57:22.337009 12993 net.cpp:395] relu5_1 -> conv5_1 (in-place)
I0329 19:57:22.337033 12993 net.cpp:150] Setting up relu5_1
I0329 19:57:22.337049 12993 net.cpp:157] Top shape: 8 512 32 32 (4194304)
I0329 19:57:22.337061 12993 net.cpp:165] Memory required for data: 5049942048
I0329 19:57:22.337076 12993 layer_factory.hpp:77] Creating layer conv5_2
I0329 19:57:22.337108 12993 net.cpp:100] Creating Layer conv5_2
I0329 19:57:22.337121 12993 net.cpp:434] conv5_2 <- conv5_1
I0329 19:57:22.337144 12993 net.cpp:408] conv5_2 -> conv5_2
I0329 19:57:23.253680 12993 net.cpp:150] Setting up conv5_2
I0329 19:57:23.253754 12993 net.cpp:157] Top shape: 8 512 32 32 (4194304)
I0329 19:57:23.253767 12993 net.cpp:165] Memory required for data: 5066719264
I0329 19:57:23.253794 12993 layer_factory.hpp:77] Creating layer relu5_2
I0329 19:57:23.253829 12993 net.cpp:100] Creating Layer relu5_2
I0329 19:57:23.253844 12993 net.cpp:434] relu5_2 <- conv5_2
I0329 19:57:23.253868 12993 net.cpp:395] relu5_2 -> conv5_2 (in-place)
I0329 19:57:23.253895 12993 net.cpp:150] Setting up relu5_2
I0329 19:57:23.253911 12993 net.cpp:157] Top shape: 8 512 32 32 (4194304)
I0329 19:57:23.253923 12993 net.cpp:165] Memory required for data: 5083496480
I0329 19:57:23.253938 12993 layer_factory.hpp:77] Creating layer conv5_3
I0329 19:57:23.253973 12993 net.cpp:100] Creating Layer conv5_3
I0329 19:57:23.253986 12993 net.cpp:434] conv5_3 <- conv5_2
I0329 19:57:23.254010 12993 net.cpp:408] conv5_3 -> conv5_3
I0329 19:57:23.280248 12993 net.cpp:150] Setting up conv5_3
I0329 19:57:23.280310 12993 net.cpp:157] Top shape: 8 512 32 32 (4194304)
I0329 19:57:23.280324 12993 net.cpp:165] Memory required for data: 5100273696
I0329 19:57:23.280350 12993 layer_factory.hpp:77] Creating layer relu5_3
I0329 19:57:23.280387 12993 net.cpp:100] Creating Layer relu5_3
I0329 19:57:23.280403 12993 net.cpp:434] relu5_3 <- conv5_3
I0329 19:57:23.280426 12993 net.cpp:395] relu5_3 -> conv5_3 (in-place)
I0329 19:57:23.280450 12993 net.cpp:150] Setting up relu5_3
I0329 19:57:23.280467 12993 net.cpp:157] Top shape: 8 512 32 32 (4194304)
I0329 19:57:23.280479 12993 net.cpp:165] Memory required for data: 5117050912
I0329 19:57:23.280494 12993 layer_factory.hpp:77] Creating layer pool5
I0329 19:57:23.280516 12993 net.cpp:100] Creating Layer pool5
I0329 19:57:23.280529 12993 net.cpp:434] pool5 <- conv5_3
I0329 19:57:23.280548 12993 net.cpp:408] pool5 -> pool5
I0329 19:57:23.280623 12993 net.cpp:150] Setting up pool5
I0329 19:57:23.280644 12993 net.cpp:157] Top shape: 8 512 32 32 (4194304)
I0329 19:57:23.280658 12993 net.cpp:165] Memory required for data: 5133828128
I0329 19:57:23.280673 12993 layer_factory.hpp:77] Creating layer fc6
I0329 19:57:23.280705 12993 net.cpp:100] Creating Layer fc6
I0329 19:57:23.280719 12993 net.cpp:434] fc6 <- pool5
I0329 19:57:23.280741 12993 net.cpp:408] fc6 -> fc6
I0329 19:57:23.332767 12993 net.cpp:150] Setting up fc6
I0329 19:57:23.332831 12993 net.cpp:157] Top shape: 8 1024 32 32 (8388608)
I0329 19:57:23.332844 12993 net.cpp:165] Memory required for data: 5167382560
I0329 19:57:23.332871 12993 layer_factory.hpp:77] Creating layer relu6
I0329 19:57:23.332902 12993 net.cpp:100] Creating Layer relu6
I0329 19:57:23.332965 12993 net.cpp:434] relu6 <- fc6
I0329 19:57:23.332991 12993 net.cpp:395] relu6 -> fc6 (in-place)
I0329 19:57:23.333019 12993 net.cpp:150] Setting up relu6
I0329 19:57:23.333036 12993 net.cpp:157] Top shape: 8 1024 32 32 (8388608)
I0329 19:57:23.333048 12993 net.cpp:165] Memory required for data: 5200936992
I0329 19:57:23.333063 12993 layer_factory.hpp:77] Creating layer fc7
I0329 19:57:23.333096 12993 net.cpp:100] Creating Layer fc7
I0329 19:57:23.333109 12993 net.cpp:434] fc7 <- fc6
I0329 19:57:23.333132 12993 net.cpp:408] fc7 -> fc7
I0329 19:57:23.345144 12993 net.cpp:150] Setting up fc7
I0329 19:57:23.345171 12993 net.cpp:157] Top shape: 8 1024 32 32 (8388608)
I0329 19:57:23.345185 12993 net.cpp:165] Memory required for data: 5234491424
I0329 19:57:23.345208 12993 layer_factory.hpp:77] Creating layer relu7
I0329 19:57:23.345227 12993 net.cpp:100] Creating Layer relu7
I0329 19:57:23.345240 12993 net.cpp:434] relu7 <- fc7
I0329 19:57:23.345260 12993 net.cpp:395] relu7 -> fc7 (in-place)
I0329 19:57:23.345279 12993 net.cpp:150] Setting up relu7
I0329 19:57:23.345295 12993 net.cpp:157] Top shape: 8 1024 32 32 (8388608)
I0329 19:57:23.345307 12993 net.cpp:165] Memory required for data: 5268045856
I0329 19:57:23.345322 12993 layer_factory.hpp:77] Creating layer fc7_relu7_0_split
I0329 19:57:23.345345 12993 net.cpp:100] Creating Layer fc7_relu7_0_split
I0329 19:57:23.345357 12993 net.cpp:434] fc7_relu7_0_split <- fc7
I0329 19:57:23.345377 12993 net.cpp:408] fc7_relu7_0_split -> fc7_relu7_0_split_0
I0329 19:57:23.345397 12993 net.cpp:408] fc7_relu7_0_split -> fc7_relu7_0_split_1
I0329 19:57:23.345424 12993 net.cpp:408] fc7_relu7_0_split -> fc7_relu7_0_split_2
I0329 19:57:23.345445 12993 net.cpp:408] fc7_relu7_0_split -> fc7_relu7_0_split_3
I0329 19:57:23.345533 12993 net.cpp:150] Setting up fc7_relu7_0_split
I0329 19:57:23.345553 12993 net.cpp:157] Top shape: 8 1024 32 32 (8388608)
I0329 19:57:23.345572 12993 net.cpp:157] Top shape: 8 1024 32 32 (8388608)
I0329 19:57:23.345592 12993 net.cpp:157] Top shape: 8 1024 32 32 (8388608)
I0329 19:57:23.345609 12993 net.cpp:157] Top shape: 8 1024 32 32 (8388608)
I0329 19:57:23.345621 12993 net.cpp:165] Memory required for data: 5402263584
I0329 19:57:23.345636 12993 layer_factory.hpp:77] Creating layer conv6_1
I0329 19:57:23.345667 12993 net.cpp:100] Creating Layer conv6_1
I0329 19:57:23.345679 12993 net.cpp:434] conv6_1 <- fc7_relu7_0_split_0
I0329 19:57:23.345692 12993 net.cpp:408] conv6_1 -> conv6_1
I0329 19:57:23.349084 12993 net.cpp:150] Setting up conv6_1
I0329 19:57:23.349108 12993 net.cpp:157] Top shape: 8 256 32 32 (2097152)
I0329 19:57:23.349123 12993 net.cpp:165] Memory required for data: 5410652192
I0329 19:57:23.349148 12993 layer_factory.hpp:77] Creating layer conv6_1_relu
I0329 19:57:23.349166 12993 net.cpp:100] Creating Layer conv6_1_relu
I0329 19:57:23.349179 12993 net.cpp:434] conv6_1_relu <- conv6_1
I0329 19:57:23.349200 12993 net.cpp:395] conv6_1_relu -> conv6_1 (in-place)
I0329 19:57:23.349218 12993 net.cpp:150] Setting up conv6_1_relu
I0329 19:57:23.349236 12993 net.cpp:157] Top shape: 8 256 32 32 (2097152)
I0329 19:57:23.349247 12993 net.cpp:165] Memory required for data: 5419040800
I0329 19:57:23.349261 12993 layer_factory.hpp:77] Creating layer conv6_2
I0329 19:57:23.349287 12993 net.cpp:100] Creating Layer conv6_2
I0329 19:57:23.349300 12993 net.cpp:434] conv6_2 <- conv6_1
I0329 19:57:23.349324 12993 net.cpp:408] conv6_2 -> conv6_2
I0329 19:57:23.362563 12993 net.cpp:150] Setting up conv6_2
I0329 19:57:23.362601 12993 net.cpp:157] Top shape: 8 512 16 16 (1048576)
I0329 19:57:23.362614 12993 net.cpp:165] Memory required for data: 5423235104
I0329 19:57:23.362648 12993 layer_factory.hpp:77] Creating layer conv6_2_relu
I0329 19:57:23.362669 12993 net.cpp:100] Creating Layer conv6_2_relu
I0329 19:57:23.362682 12993 net.cpp:434] conv6_2_relu <- conv6_2
I0329 19:57:23.362704 12993 net.cpp:395] conv6_2_relu -> conv6_2 (in-place)
I0329 19:57:23.362725 12993 net.cpp:150] Setting up conv6_2_relu
I0329 19:57:23.362741 12993 net.cpp:157] Top shape: 8 512 16 16 (1048576)
I0329 19:57:23.362792 12993 net.cpp:165] Memory required for data: 5427429408
I0329 19:57:23.362807 12993 layer_factory.hpp:77] Creating layer conv6_2_conv6_2_relu_0_split
I0329 19:57:23.362828 12993 net.cpp:100] Creating Layer conv6_2_conv6_2_relu_0_split
I0329 19:57:23.362840 12993 net.cpp:434] conv6_2_conv6_2_relu_0_split <- conv6_2
I0329 19:57:23.362860 12993 net.cpp:408] conv6_2_conv6_2_relu_0_split -> conv6_2_conv6_2_relu_0_split_0
I0329 19:57:23.362881 12993 net.cpp:408] conv6_2_conv6_2_relu_0_split -> conv6_2_conv6_2_relu_0_split_1
I0329 19:57:23.362902 12993 net.cpp:408] conv6_2_conv6_2_relu_0_split -> conv6_2_conv6_2_relu_0_split_2
I0329 19:57:23.362922 12993 net.cpp:408] conv6_2_conv6_2_relu_0_split -> conv6_2_conv6_2_relu_0_split_3
I0329 19:57:23.363006 12993 net.cpp:150] Setting up conv6_2_conv6_2_relu_0_split
I0329 19:57:23.363026 12993 net.cpp:157] Top shape: 8 512 16 16 (1048576)
I0329 19:57:23.363044 12993 net.cpp:157] Top shape: 8 512 16 16 (1048576)
I0329 19:57:23.363061 12993 net.cpp:157] Top shape: 8 512 16 16 (1048576)
I0329 19:57:23.363077 12993 net.cpp:157] Top shape: 8 512 16 16 (1048576)
I0329 19:57:23.363088 12993 net.cpp:165] Memory required for data: 5444206624
I0329 19:57:23.363102 12993 layer_factory.hpp:77] Creating layer conv7_1
I0329 19:57:23.363131 12993 net.cpp:100] Creating Layer conv7_1
I0329 19:57:23.363145 12993 net.cpp:434] conv7_1 <- conv6_2_conv6_2_relu_0_split_0
I0329 19:57:23.363168 12993 net.cpp:408] conv7_1 -> conv7_1
I0329 19:57:23.364051 12993 net.cpp:150] Setting up conv7_1
I0329 19:57:23.364073 12993 net.cpp:157] Top shape: 8 128 16 16 (262144)
I0329 19:57:23.364089 12993 net.cpp:165] Memory required for data: 5445255200
I0329 19:57:23.364110 12993 layer_factory.hpp:77] Creating layer conv7_1_relu
I0329 19:57:23.364132 12993 net.cpp:100] Creating Layer conv7_1_relu
I0329 19:57:23.364146 12993 net.cpp:434] conv7_1_relu <- conv7_1
I0329 19:57:23.364167 12993 net.cpp:395] conv7_1_relu -> conv7_1 (in-place)
I0329 19:57:23.364187 12993 net.cpp:150] Setting up conv7_1_relu
I0329 19:57:23.364205 12993 net.cpp:157] Top shape: 8 128 16 16 (262144)
I0329 19:57:23.364217 12993 net.cpp:165] Memory required for data: 5446303776
I0329 19:57:23.364229 12993 layer_factory.hpp:77] Creating layer conv7_2
I0329 19:57:23.364256 12993 net.cpp:100] Creating Layer conv7_2
I0329 19:57:23.364269 12993 net.cpp:434] conv7_2 <- conv7_1
I0329 19:57:23.364292 12993 net.cpp:408] conv7_2 -> conv7_2
I0329 19:57:23.368136 12993 net.cpp:150] Setting up conv7_2
I0329 19:57:23.368161 12993 net.cpp:157] Top shape: 8 256 8 8 (131072)
I0329 19:57:23.368175 12993 net.cpp:165] Memory required for data: 5446828064
I0329 19:57:23.368198 12993 layer_factory.hpp:77] Creating layer conv7_2_relu
I0329 19:57:23.368216 12993 net.cpp:100] Creating Layer conv7_2_relu
I0329 19:57:23.368229 12993 net.cpp:434] conv7_2_relu <- conv7_2
I0329 19:57:23.368248 12993 net.cpp:395] conv7_2_relu -> conv7_2 (in-place)
I0329 19:57:23.368268 12993 net.cpp:150] Setting up conv7_2_relu
I0329 19:57:23.368284 12993 net.cpp:157] Top shape: 8 256 8 8 (131072)
I0329 19:57:23.368296 12993 net.cpp:165] Memory required for data: 5447352352
I0329 19:57:23.368310 12993 layer_factory.hpp:77] Creating layer conv7_2_conv7_2_relu_0_split
I0329 19:57:23.368330 12993 net.cpp:100] Creating Layer conv7_2_conv7_2_relu_0_split
I0329 19:57:23.368343 12993 net.cpp:434] conv7_2_conv7_2_relu_0_split <- conv7_2
I0329 19:57:23.368363 12993 net.cpp:408] conv7_2_conv7_2_relu_0_split -> conv7_2_conv7_2_relu_0_split_0
I0329 19:57:23.368384 12993 net.cpp:408] conv7_2_conv7_2_relu_0_split -> conv7_2_conv7_2_relu_0_split_1
I0329 19:57:23.368405 12993 net.cpp:408] conv7_2_conv7_2_relu_0_split -> conv7_2_conv7_2_relu_0_split_2
I0329 19:57:23.368424 12993 net.cpp:408] conv7_2_conv7_2_relu_0_split -> conv7_2_conv7_2_relu_0_split_3
I0329 19:57:23.368511 12993 net.cpp:150] Setting up conv7_2_conv7_2_relu_0_split
I0329 19:57:23.368532 12993 net.cpp:157] Top shape: 8 256 8 8 (131072)
I0329 19:57:23.368552 12993 net.cpp:157] Top shape: 8 256 8 8 (131072)
I0329 19:57:23.368594 12993 net.cpp:157] Top shape: 8 256 8 8 (131072)
I0329 19:57:23.368615 12993 net.cpp:157] Top shape: 8 256 8 8 (131072)
I0329 19:57:23.368629 12993 net.cpp:165] Memory required for data: 5449449504
I0329 19:57:23.368644 12993 layer_factory.hpp:77] Creating layer conv8_1
I0329 19:57:23.368672 12993 net.cpp:100] Creating Layer conv8_1
I0329 19:57:23.368686 12993 net.cpp:434] conv8_1 <- conv7_2_conv7_2_relu_0_split_0
I0329 19:57:23.368710 12993 net.cpp:408] conv8_1 -> conv8_1
I0329 19:57:23.369285 12993 net.cpp:150] Setting up conv8_1
I0329 19:57:23.369307 12993 net.cpp:157] Top shape: 8 128 8 8 (65536)
I0329 19:57:23.369321 12993 net.cpp:165] Memory required for data: 5449711648
I0329 19:57:23.369345 12993 layer_factory.hpp:77] Creating layer conv8_1_relu
I0329 19:57:23.369364 12993 net.cpp:100] Creating Layer conv8_1_relu
I0329 19:57:23.369376 12993 net.cpp:434] conv8_1_relu <- conv8_1
I0329 19:57:23.369395 12993 net.cpp:395] conv8_1_relu -> conv8_1 (in-place)
I0329 19:57:23.369415 12993 net.cpp:150] Setting up conv8_1_relu
I0329 19:57:23.369431 12993 net.cpp:157] Top shape: 8 128 8 8 (65536)
I0329 19:57:23.369443 12993 net.cpp:165] Memory required for data: 5449973792
I0329 19:57:23.369458 12993 layer_factory.hpp:77] Creating layer conv8_2
I0329 19:57:23.369483 12993 net.cpp:100] Creating Layer conv8_2
I0329 19:57:23.369496 12993 net.cpp:434] conv8_2 <- conv8_1
I0329 19:57:23.369518 12993 net.cpp:408] conv8_2 -> conv8_2
I0329 19:57:23.373342 12993 net.cpp:150] Setting up conv8_2
I0329 19:57:23.373366 12993 net.cpp:157] Top shape: 8 256 6 6 (73728)
I0329 19:57:23.373380 12993 net.cpp:165] Memory required for data: 5450268704
I0329 19:57:23.373404 12993 layer_factory.hpp:77] Creating layer conv8_2_relu
I0329 19:57:23.373422 12993 net.cpp:100] Creating Layer conv8_2_relu
I0329 19:57:23.373436 12993 net.cpp:434] conv8_2_relu <- conv8_2
I0329 19:57:23.373456 12993 net.cpp:395] conv8_2_relu -> conv8_2 (in-place)
I0329 19:57:23.373474 12993 net.cpp:150] Setting up conv8_2_relu
I0329 19:57:23.373492 12993 net.cpp:157] Top shape: 8 256 6 6 (73728)
I0329 19:57:23.373503 12993 net.cpp:165] Memory required for data: 5450563616
I0329 19:57:23.373517 12993 layer_factory.hpp:77] Creating layer conv8_2_conv8_2_relu_0_split
I0329 19:57:23.373538 12993 net.cpp:100] Creating Layer conv8_2_conv8_2_relu_0_split
I0329 19:57:23.373549 12993 net.cpp:434] conv8_2_conv8_2_relu_0_split <- conv8_2
I0329 19:57:23.373569 12993 net.cpp:408] conv8_2_conv8_2_relu_0_split -> conv8_2_conv8_2_relu_0_split_0
I0329 19:57:23.373594 12993 net.cpp:408] conv8_2_conv8_2_relu_0_split -> conv8_2_conv8_2_relu_0_split_1
I0329 19:57:23.373615 12993 net.cpp:408] conv8_2_conv8_2_relu_0_split -> conv8_2_conv8_2_relu_0_split_2
I0329 19:57:23.373636 12993 net.cpp:408] conv8_2_conv8_2_relu_0_split -> conv8_2_conv8_2_relu_0_split_3
I0329 19:57:23.373728 12993 net.cpp:150] Setting up conv8_2_conv8_2_relu_0_split
I0329 19:57:23.373749 12993 net.cpp:157] Top shape: 8 256 6 6 (73728)
I0329 19:57:23.373766 12993 net.cpp:157] Top shape: 8 256 6 6 (73728)
I0329 19:57:23.373782 12993 net.cpp:157] Top shape: 8 256 6 6 (73728)
I0329 19:57:23.373797 12993 net.cpp:157] Top shape: 8 256 6 6 (73728)
I0329 19:57:23.373809 12993 net.cpp:165] Memory required for data: 5451743264
I0329 19:57:23.373823 12993 layer_factory.hpp:77] Creating layer conv9_1
I0329 19:57:23.373848 12993 net.cpp:100] Creating Layer conv9_1
I0329 19:57:23.373862 12993 net.cpp:434] conv9_1 <- conv8_2_conv8_2_relu_0_split_0
I0329 19:57:23.373885 12993 net.cpp:408] conv9_1 -> conv9_1
I0329 19:57:23.374464 12993 net.cpp:150] Setting up conv9_1
I0329 19:57:23.374486 12993 net.cpp:157] Top shape: 8 128 6 6 (36864)
I0329 19:57:23.374501 12993 net.cpp:165] Memory required for data: 5451890720
I0329 19:57:23.374524 12993 layer_factory.hpp:77] Creating layer conv9_1_relu
I0329 19:57:23.374542 12993 net.cpp:100] Creating Layer conv9_1_relu
I0329 19:57:23.374557 12993 net.cpp:434] conv9_1_relu <- conv9_1
I0329 19:57:23.374580 12993 net.cpp:395] conv9_1_relu -> conv9_1 (in-place)
I0329 19:57:23.374600 12993 net.cpp:150] Setting up conv9_1_relu
I0329 19:57:23.374637 12993 net.cpp:157] Top shape: 8 128 6 6 (36864)
I0329 19:57:23.374650 12993 net.cpp:165] Memory required for data: 5452038176
I0329 19:57:23.374666 12993 layer_factory.hpp:77] Creating layer conv9_2
I0329 19:57:23.374694 12993 net.cpp:100] Creating Layer conv9_2
I0329 19:57:23.374708 12993 net.cpp:434] conv9_2 <- conv9_1
I0329 19:57:23.374732 12993 net.cpp:408] conv9_2 -> conv9_2
I0329 19:57:23.378564 12993 net.cpp:150] Setting up conv9_2
I0329 19:57:23.378593 12993 net.cpp:157] Top shape: 8 256 4 4 (32768)
I0329 19:57:23.378610 12993 net.cpp:165] Memory required for data: 5452169248
I0329 19:57:23.378634 12993 layer_factory.hpp:77] Creating layer conv9_2_relu
I0329 19:57:23.378652 12993 net.cpp:100] Creating Layer conv9_2_relu
I0329 19:57:23.378666 12993 net.cpp:434] conv9_2_relu <- conv9_2
I0329 19:57:23.378686 12993 net.cpp:395] conv9_2_relu -> conv9_2 (in-place)
I0329 19:57:23.378705 12993 net.cpp:150] Setting up conv9_2_relu
I0329 19:57:23.378721 12993 net.cpp:157] Top shape: 8 256 4 4 (32768)
I0329 19:57:23.378734 12993 net.cpp:165] Memory required for data: 5452300320
I0329 19:57:23.378748 12993 layer_factory.hpp:77] Creating layer conv9_2_conv9_2_relu_0_split
I0329 19:57:23.378767 12993 net.cpp:100] Creating Layer conv9_2_conv9_2_relu_0_split
I0329 19:57:23.378779 12993 net.cpp:434] conv9_2_conv9_2_relu_0_split <- conv9_2
I0329 19:57:23.378799 12993 net.cpp:408] conv9_2_conv9_2_relu_0_split -> conv9_2_conv9_2_relu_0_split_0
I0329 19:57:23.378820 12993 net.cpp:408] conv9_2_conv9_2_relu_0_split -> conv9_2_conv9_2_relu_0_split_1
I0329 19:57:23.378841 12993 net.cpp:408] conv9_2_conv9_2_relu_0_split -> conv9_2_conv9_2_relu_0_split_2
I0329 19:57:23.378921 12993 net.cpp:150] Setting up conv9_2_conv9_2_relu_0_split
I0329 19:57:23.378942 12993 net.cpp:157] Top shape: 8 256 4 4 (32768)
I0329 19:57:23.378958 12993 net.cpp:157] Top shape: 8 256 4 4 (32768)
I0329 19:57:23.378974 12993 net.cpp:157] Top shape: 8 256 4 4 (32768)
I0329 19:57:23.378986 12993 net.cpp:165] Memory required for data: 5452693536
I0329 19:57:23.379000 12993 layer_factory.hpp:77] Creating layer conv4_3_norm
I0329 19:57:23.379025 12993 net.cpp:100] Creating Layer conv4_3_norm
I0329 19:57:23.379038 12993 net.cpp:434] conv4_3_norm <- conv4_3_relu4_3_0_split_1
I0329 19:57:23.379060 12993 net.cpp:408] conv4_3_norm -> conv4_3_norm
I0329 19:57:23.379258 12993 net.cpp:150] Setting up conv4_3_norm
I0329 19:57:23.379279 12993 net.cpp:157] Top shape: 8 512 64 64 (16777216)
I0329 19:57:23.379292 12993 net.cpp:165] Memory required for data: 5519802400
I0329 19:57:23.379313 12993 layer_factory.hpp:77] Creating layer conv4_3_norm_conv4_3_norm_0_split
I0329 19:57:23.379330 12993 net.cpp:100] Creating Layer conv4_3_norm_conv4_3_norm_0_split
I0329 19:57:23.379346 12993 net.cpp:434] conv4_3_norm_conv4_3_norm_0_split <- conv4_3_norm
I0329 19:57:23.379366 12993 net.cpp:408] conv4_3_norm_conv4_3_norm_0_split -> conv4_3_norm_conv4_3_norm_0_split_0
I0329 19:57:23.379386 12993 net.cpp:408] conv4_3_norm_conv4_3_norm_0_split -> conv4_3_norm_conv4_3_norm_0_split_1
I0329 19:57:23.379407 12993 net.cpp:408] conv4_3_norm_conv4_3_norm_0_split -> conv4_3_norm_conv4_3_norm_0_split_2
I0329 19:57:23.379480 12993 net.cpp:150] Setting up conv4_3_norm_conv4_3_norm_0_split
I0329 19:57:23.379500 12993 net.cpp:157] Top shape: 8 512 64 64 (16777216)
I0329 19:57:23.379518 12993 net.cpp:157] Top shape: 8 512 64 64 (16777216)
I0329 19:57:23.379534 12993 net.cpp:157] Top shape: 8 512 64 64 (16777216)
I0329 19:57:23.379546 12993 net.cpp:165] Memory required for data: 5721128992
I0329 19:57:23.379561 12993 layer_factory.hpp:77] Creating layer conv4_3_norm_mbox_loc
I0329 19:57:23.379591 12993 net.cpp:100] Creating Layer conv4_3_norm_mbox_loc
I0329 19:57:23.379606 12993 net.cpp:434] conv4_3_norm_mbox_loc <- conv4_3_norm_conv4_3_norm_0_split_0
I0329 19:57:23.379628 12993 net.cpp:408] conv4_3_norm_mbox_loc -> conv4_3_norm_mbox_loc
I0329 19:57:23.380579 12993 net.cpp:150] Setting up conv4_3_norm_mbox_loc
I0329 19:57:23.380602 12993 net.cpp:157] Top shape: 8 16 64 64 (524288)
I0329 19:57:23.380638 12993 net.cpp:165] Memory required for data: 5723226144
I0329 19:57:23.380662 12993 layer_factory.hpp:77] Creating layer conv4_3_norm_mbox_loc_perm
I0329 19:57:23.380686 12993 net.cpp:100] Creating Layer conv4_3_norm_mbox_loc_perm
I0329 19:57:23.380698 12993 net.cpp:434] conv4_3_norm_mbox_loc_perm <- conv4_3_norm_mbox_loc
I0329 19:57:23.380719 12993 net.cpp:408] conv4_3_norm_mbox_loc_perm -> conv4_3_norm_mbox_loc_perm
I0329 19:57:23.380856 12993 net.cpp:150] Setting up conv4_3_norm_mbox_loc_perm
I0329 19:57:23.380877 12993 net.cpp:157] Top shape: 8 64 64 16 (524288)
I0329 19:57:23.380892 12993 net.cpp:165] Memory required for data: 5725323296
I0329 19:57:23.380906 12993 layer_factory.hpp:77] Creating layer conv4_3_norm_mbox_loc_flat
I0329 19:57:23.380928 12993 net.cpp:100] Creating Layer conv4_3_norm_mbox_loc_flat
I0329 19:57:23.380940 12993 net.cpp:434] conv4_3_norm_mbox_loc_flat <- conv4_3_norm_mbox_loc_perm
I0329 19:57:23.380960 12993 net.cpp:408] conv4_3_norm_mbox_loc_flat -> conv4_3_norm_mbox_loc_flat
I0329 19:57:23.381018 12993 net.cpp:150] Setting up conv4_3_norm_mbox_loc_flat
I0329 19:57:23.381038 12993 net.cpp:157] Top shape: 8 65536 (524288)
I0329 19:57:23.381052 12993 net.cpp:165] Memory required for data: 5727420448
I0329 19:57:23.381067 12993 layer_factory.hpp:77] Creating layer conv4_3_norm_mbox_conf
I0329 19:57:23.381103 12993 net.cpp:100] Creating Layer conv4_3_norm_mbox_conf
I0329 19:57:23.381116 12993 net.cpp:434] conv4_3_norm_mbox_conf <- conv4_3_norm_conv4_3_norm_0_split_1
I0329 19:57:23.381140 12993 net.cpp:408] conv4_3_norm_mbox_conf -> conv4_3_norm_mbox_conf
I0329 19:57:23.381808 12993 net.cpp:150] Setting up conv4_3_norm_mbox_conf
I0329 19:57:23.381829 12993 net.cpp:157] Top shape: 8 8 64 64 (262144)
I0329 19:57:23.381844 12993 net.cpp:165] Memory required for data: 5728469024
I0329 19:57:23.381867 12993 layer_factory.hpp:77] Creating layer conv4_3_norm_mbox_conf_perm
I0329 19:57:23.381886 12993 net.cpp:100] Creating Layer conv4_3_norm_mbox_conf_perm
I0329 19:57:23.381901 12993 net.cpp:434] conv4_3_norm_mbox_conf_perm <- conv4_3_norm_mbox_conf
I0329 19:57:23.381922 12993 net.cpp:408] conv4_3_norm_mbox_conf_perm -> conv4_3_norm_mbox_conf_perm
I0329 19:57:23.382055 12993 net.cpp:150] Setting up conv4_3_norm_mbox_conf_perm
I0329 19:57:23.382076 12993 net.cpp:157] Top shape: 8 64 64 8 (262144)
I0329 19:57:23.382089 12993 net.cpp:165] Memory required for data: 5729517600
I0329 19:57:23.382104 12993 layer_factory.hpp:77] Creating layer conv4_3_norm_mbox_conf_flat
I0329 19:57:23.382123 12993 net.cpp:100] Creating Layer conv4_3_norm_mbox_conf_flat
I0329 19:57:23.382136 12993 net.cpp:434] conv4_3_norm_mbox_conf_flat <- conv4_3_norm_mbox_conf_perm
I0329 19:57:23.382156 12993 net.cpp:408] conv4_3_norm_mbox_conf_flat -> conv4_3_norm_mbox_conf_flat
I0329 19:57:23.382201 12993 net.cpp:150] Setting up conv4_3_norm_mbox_conf_flat
I0329 19:57:23.382220 12993 net.cpp:157] Top shape: 8 32768 (262144)
I0329 19:57:23.382234 12993 net.cpp:165] Memory required for data: 5730566176
I0329 19:57:23.382249 12993 layer_factory.hpp:77] Creating layer conv4_3_norm_mbox_priorbox
I0329 19:57:23.382273 12993 net.cpp:100] Creating Layer conv4_3_norm_mbox_priorbox
I0329 19:57:23.382287 12993 net.cpp:434] conv4_3_norm_mbox_priorbox <- conv4_3_norm_conv4_3_norm_0_split_2
I0329 19:57:23.382303 12993 net.cpp:434] conv4_3_norm_mbox_priorbox <- data_data_0_split_1
I0329 19:57:23.382323 12993 net.cpp:408] conv4_3_norm_mbox_priorbox -> conv4_3_norm_mbox_priorbox
I0329 19:57:23.382376 12993 net.cpp:150] Setting up conv4_3_norm_mbox_priorbox
I0329 19:57:23.382396 12993 net.cpp:157] Top shape: 1 2 65536 (131072)
I0329 19:57:23.382409 12993 net.cpp:165] Memory required for data: 5731090464
I0329 19:57:23.382423 12993 layer_factory.hpp:77] Creating layer fc7_mbox_loc
I0329 19:57:23.382449 12993 net.cpp:100] Creating Layer fc7_mbox_loc
I0329 19:57:23.382463 12993 net.cpp:434] fc7_mbox_loc <- fc7_relu7_0_split_1
I0329 19:57:23.382485 12993 net.cpp:408] fc7_mbox_loc -> fc7_mbox_loc
I0329 19:57:23.385718 12993 net.cpp:150] Setting up fc7_mbox_loc
I0329 19:57:23.385758 12993 net.cpp:157] Top shape: 8 24 32 32 (196608)
I0329 19:57:23.385774 12993 net.cpp:165] Memory required for data: 5731876896
I0329 19:57:23.385798 12993 layer_factory.hpp:77] Creating layer fc7_mbox_loc_perm
I0329 19:57:23.385818 12993 net.cpp:100] Creating Layer fc7_mbox_loc_perm
I0329 19:57:23.385831 12993 net.cpp:434] fc7_mbox_loc_perm <- fc7_mbox_loc
I0329 19:57:23.385852 12993 net.cpp:408] fc7_mbox_loc_perm -> fc7_mbox_loc_perm
I0329 19:57:23.385985 12993 net.cpp:150] Setting up fc7_mbox_loc_perm
I0329 19:57:23.386006 12993 net.cpp:157] Top shape: 8 32 32 24 (196608)
I0329 19:57:23.386019 12993 net.cpp:165] Memory required for data: 5732663328
I0329 19:57:23.386034 12993 layer_factory.hpp:77] Creating layer fc7_mbox_loc_flat
I0329 19:57:23.386054 12993 net.cpp:100] Creating Layer fc7_mbox_loc_flat
I0329 19:57:23.386066 12993 net.cpp:434] fc7_mbox_loc_flat <- fc7_mbox_loc_perm
I0329 19:57:23.386085 12993 net.cpp:408] fc7_mbox_loc_flat -> fc7_mbox_loc_flat
I0329 19:57:23.386132 12993 net.cpp:150] Setting up fc7_mbox_loc_flat
I0329 19:57:23.386150 12993 net.cpp:157] Top shape: 8 24576 (196608)
I0329 19:57:23.386164 12993 net.cpp:165] Memory required for data: 5733449760
I0329 19:57:23.386178 12993 layer_factory.hpp:77] Creating layer fc7_mbox_conf
I0329 19:57:23.386204 12993 net.cpp:100] Creating Layer fc7_mbox_conf
I0329 19:57:23.386219 12993 net.cpp:434] fc7_mbox_conf <- fc7_relu7_0_split_2
I0329 19:57:23.386241 12993 net.cpp:408] fc7_mbox_conf -> fc7_mbox_conf
I0329 19:57:23.388360 12993 net.cpp:150] Setting up fc7_mbox_conf
I0329 19:57:23.388384 12993 net.cpp:157] Top shape: 8 12 32 32 (98304)
I0329 19:57:23.388398 12993 net.cpp:165] Memory required for data: 5733842976
I0329 19:57:23.388422 12993 layer_factory.hpp:77] Creating layer fc7_mbox_conf_perm
I0329 19:57:23.388442 12993 net.cpp:100] Creating Layer fc7_mbox_conf_perm
I0329 19:57:23.388455 12993 net.cpp:434] fc7_mbox_conf_perm <- fc7_mbox_conf
I0329 19:57:23.388476 12993 net.cpp:408] fc7_mbox_conf_perm -> fc7_mbox_conf_perm
I0329 19:57:23.388617 12993 net.cpp:150] Setting up fc7_mbox_conf_perm
I0329 19:57:23.388638 12993 net.cpp:157] Top shape: 8 32 32 12 (98304)
I0329 19:57:23.388653 12993 net.cpp:165] Memory required for data: 5734236192
I0329 19:57:23.388667 12993 layer_factory.hpp:77] Creating layer fc7_mbox_conf_flat
I0329 19:57:23.388686 12993 net.cpp:100] Creating Layer fc7_mbox_conf_flat
I0329 19:57:23.388700 12993 net.cpp:434] fc7_mbox_conf_flat <- fc7_mbox_conf_perm
I0329 19:57:23.388720 12993 net.cpp:408] fc7_mbox_conf_flat -> fc7_mbox_conf_flat
I0329 19:57:23.388767 12993 net.cpp:150] Setting up fc7_mbox_conf_flat
I0329 19:57:23.388785 12993 net.cpp:157] Top shape: 8 12288 (98304)
I0329 19:57:23.388799 12993 net.cpp:165] Memory required for data: 5734629408
I0329 19:57:23.388813 12993 layer_factory.hpp:77] Creating layer fc7_mbox_priorbox
I0329 19:57:23.388834 12993 net.cpp:100] Creating Layer fc7_mbox_priorbox
I0329 19:57:23.388847 12993 net.cpp:434] fc7_mbox_priorbox <- fc7_relu7_0_split_3
I0329 19:57:23.388865 12993 net.cpp:434] fc7_mbox_priorbox <- data_data_0_split_2
I0329 19:57:23.388885 12993 net.cpp:408] fc7_mbox_priorbox -> fc7_mbox_priorbox
I0329 19:57:23.388934 12993 net.cpp:150] Setting up fc7_mbox_priorbox
I0329 19:57:23.388953 12993 net.cpp:157] Top shape: 1 2 24576 (49152)
I0329 19:57:23.388967 12993 net.cpp:165] Memory required for data: 5734826016
I0329 19:57:23.388983 12993 layer_factory.hpp:77] Creating layer conv6_2_mbox_loc
I0329 19:57:23.389008 12993 net.cpp:100] Creating Layer conv6_2_mbox_loc
I0329 19:57:23.389021 12993 net.cpp:434] conv6_2_mbox_loc <- conv6_2_conv6_2_relu_0_split_1
I0329 19:57:23.389045 12993 net.cpp:408] conv6_2_mbox_loc -> conv6_2_mbox_loc
I0329 19:57:23.390269 12993 net.cpp:150] Setting up conv6_2_mbox_loc
I0329 19:57:23.390290 12993 net.cpp:157] Top shape: 8 24 16 16 (49152)
I0329 19:57:23.390305 12993 net.cpp:165] Memory required for data: 5735022624
I0329 19:57:23.390328 12993 layer_factory.hpp:77] Creating layer conv6_2_mbox_loc_perm
I0329 19:57:23.390367 12993 net.cpp:100] Creating Layer conv6_2_mbox_loc_perm
I0329 19:57:23.390377 12993 net.cpp:434] conv6_2_mbox_loc_perm <- conv6_2_mbox_loc
I0329 19:57:23.390388 12993 net.cpp:408] conv6_2_mbox_loc_perm -> conv6_2_mbox_loc_perm
I0329 19:57:23.390537 12993 net.cpp:150] Setting up conv6_2_mbox_loc_perm
I0329 19:57:23.390559 12993 net.cpp:157] Top shape: 8 16 16 24 (49152)
I0329 19:57:23.390573 12993 net.cpp:165] Memory required for data: 5735219232
I0329 19:57:23.390592 12993 layer_factory.hpp:77] Creating layer conv6_2_mbox_loc_flat
I0329 19:57:23.390612 12993 net.cpp:100] Creating Layer conv6_2_mbox_loc_flat
I0329 19:57:23.390625 12993 net.cpp:434] conv6_2_mbox_loc_flat <- conv6_2_mbox_loc_perm
I0329 19:57:23.390646 12993 net.cpp:408] conv6_2_mbox_loc_flat -> conv6_2_mbox_loc_flat
I0329 19:57:23.390692 12993 net.cpp:150] Setting up conv6_2_mbox_loc_flat
I0329 19:57:23.390712 12993 net.cpp:157] Top shape: 8 6144 (49152)
I0329 19:57:23.390725 12993 net.cpp:165] Memory required for data: 5735415840
I0329 19:57:23.390739 12993 layer_factory.hpp:77] Creating layer conv6_2_mbox_conf
I0329 19:57:23.390765 12993 net.cpp:100] Creating Layer conv6_2_mbox_conf
I0329 19:57:23.390779 12993 net.cpp:434] conv6_2_mbox_conf <- conv6_2_conv6_2_relu_0_split_2
I0329 19:57:23.390802 12993 net.cpp:408] conv6_2_mbox_conf -> conv6_2_mbox_conf
I0329 19:57:23.392467 12993 net.cpp:150] Setting up conv6_2_mbox_conf
I0329 19:57:23.392491 12993 net.cpp:157] Top shape: 8 12 16 16 (24576)
I0329 19:57:23.392505 12993 net.cpp:165] Memory required for data: 5735514144
I0329 19:57:23.392529 12993 layer_factory.hpp:77] Creating layer conv6_2_mbox_conf_perm
I0329 19:57:23.392549 12993 net.cpp:100] Creating Layer conv6_2_mbox_conf_perm
I0329 19:57:23.392563 12993 net.cpp:434] conv6_2_mbox_conf_perm <- conv6_2_mbox_conf
I0329 19:57:23.392588 12993 net.cpp:408] conv6_2_mbox_conf_perm -> conv6_2_mbox_conf_perm
I0329 19:57:23.392721 12993 net.cpp:150] Setting up conv6_2_mbox_conf_perm
I0329 19:57:23.392742 12993 net.cpp:157] Top shape: 8 16 16 12 (24576)
I0329 19:57:23.392755 12993 net.cpp:165] Memory required for data: 5735612448
I0329 19:57:23.392771 12993 layer_factory.hpp:77] Creating layer conv6_2_mbox_conf_flat
I0329 19:57:23.392789 12993 net.cpp:100] Creating Layer conv6_2_mbox_conf_flat
I0329 19:57:23.392802 12993 net.cpp:434] conv6_2_mbox_conf_flat <- conv6_2_mbox_conf_perm
I0329 19:57:23.392822 12993 net.cpp:408] conv6_2_mbox_conf_flat -> conv6_2_mbox_conf_flat
I0329 19:57:23.392869 12993 net.cpp:150] Setting up conv6_2_mbox_conf_flat
I0329 19:57:23.392889 12993 net.cpp:157] Top shape: 8 3072 (24576)
I0329 19:57:23.392901 12993 net.cpp:165] Memory required for data: 5735710752
I0329 19:57:23.392916 12993 layer_factory.hpp:77] Creating layer conv6_2_mbox_priorbox
I0329 19:57:23.392937 12993 net.cpp:100] Creating Layer conv6_2_mbox_priorbox
I0329 19:57:23.392951 12993 net.cpp:434] conv6_2_mbox_priorbox <- conv6_2_conv6_2_relu_0_split_3
I0329 19:57:23.392967 12993 net.cpp:434] conv6_2_mbox_priorbox <- data_data_0_split_3
I0329 19:57:23.392987 12993 net.cpp:408] conv6_2_mbox_priorbox -> conv6_2_mbox_priorbox
I0329 19:57:23.393036 12993 net.cpp:150] Setting up conv6_2_mbox_priorbox
I0329 19:57:23.393056 12993 net.cpp:157] Top shape: 1 2 6144 (12288)
I0329 19:57:23.393069 12993 net.cpp:165] Memory required for data: 5735759904
I0329 19:57:23.393083 12993 layer_factory.hpp:77] Creating layer conv7_2_mbox_loc
I0329 19:57:23.393110 12993 net.cpp:100] Creating Layer conv7_2_mbox_loc
I0329 19:57:23.393122 12993 net.cpp:434] conv7_2_mbox_loc <- conv7_2_conv7_2_relu_0_split_1
I0329 19:57:23.393146 12993 net.cpp:408] conv7_2_mbox_loc -> conv7_2_mbox_loc
I0329 19:57:23.393918 12993 net.cpp:150] Setting up conv7_2_mbox_loc
I0329 19:57:23.393939 12993 net.cpp:157] Top shape: 8 24 8 8 (12288)
I0329 19:57:23.393954 12993 net.cpp:165] Memory required for data: 5735809056
I0329 19:57:23.393977 12993 layer_factory.hpp:77] Creating layer conv7_2_mbox_loc_perm
I0329 19:57:23.393995 12993 net.cpp:100] Creating Layer conv7_2_mbox_loc_perm
I0329 19:57:23.394018 12993 net.cpp:434] conv7_2_mbox_loc_perm <- conv7_2_mbox_loc
I0329 19:57:23.394032 12993 net.cpp:408] conv7_2_mbox_loc_perm -> conv7_2_mbox_loc_perm
I0329 19:57:23.394158 12993 net.cpp:150] Setting up conv7_2_mbox_loc_perm
I0329 19:57:23.394172 12993 net.cpp:157] Top shape: 8 8 8 24 (12288)
I0329 19:57:23.394178 12993 net.cpp:165] Memory required for data: 5735858208
I0329 19:57:23.394186 12993 layer_factory.hpp:77] Creating layer conv7_2_mbox_loc_flat
I0329 19:57:23.394196 12993 net.cpp:100] Creating Layer conv7_2_mbox_loc_flat
I0329 19:57:23.394204 12993 net.cpp:434] conv7_2_mbox_loc_flat <- conv7_2_mbox_loc_perm
I0329 19:57:23.394214 12993 net.cpp:408] conv7_2_mbox_loc_flat -> conv7_2_mbox_loc_flat
I0329 19:57:23.394250 12993 net.cpp:150] Setting up conv7_2_mbox_loc_flat
I0329 19:57:23.394263 12993 net.cpp:157] Top shape: 8 1536 (12288)
I0329 19:57:23.394269 12993 net.cpp:165] Memory required for data: 5735907360
I0329 19:57:23.394275 12993 layer_factory.hpp:77] Creating layer conv7_2_mbox_conf
I0329 19:57:23.394291 12993 net.cpp:100] Creating Layer conv7_2_mbox_conf
I0329 19:57:23.394300 12993 net.cpp:434] conv7_2_mbox_conf <- conv7_2_conv7_2_relu_0_split_2
I0329 19:57:23.394312 12993 net.cpp:408] conv7_2_mbox_conf -> conv7_2_mbox_conf
I0329 19:57:23.394837 12993 net.cpp:150] Setting up conv7_2_mbox_conf
I0329 19:57:23.394853 12993 net.cpp:157] Top shape: 8 12 8 8 (6144)
I0329 19:57:23.394860 12993 net.cpp:165] Memory required for data: 5735931936
I0329 19:57:23.394871 12993 layer_factory.hpp:77] Creating layer conv7_2_mbox_conf_perm
I0329 19:57:23.394883 12993 net.cpp:100] Creating Layer conv7_2_mbox_conf_perm
I0329 19:57:23.394891 12993 net.cpp:434] conv7_2_mbox_conf_perm <- conv7_2_mbox_conf
I0329 19:57:23.394902 12993 net.cpp:408] conv7_2_mbox_conf_perm -> conv7_2_mbox_conf_perm
I0329 19:57:23.395028 12993 net.cpp:150] Setting up conv7_2_mbox_conf_perm
I0329 19:57:23.395041 12993 net.cpp:157] Top shape: 8 8 8 12 (6144)
I0329 19:57:23.395048 12993 net.cpp:165] Memory required for data: 5735956512
I0329 19:57:23.395056 12993 layer_factory.hpp:77] Creating layer conv7_2_mbox_conf_flat
I0329 19:57:23.395066 12993 net.cpp:100] Creating Layer conv7_2_mbox_conf_flat
I0329 19:57:23.395074 12993 net.cpp:434] conv7_2_mbox_conf_flat <- conv7_2_mbox_conf_perm
I0329 19:57:23.395084 12993 net.cpp:408] conv7_2_mbox_conf_flat -> conv7_2_mbox_conf_flat
I0329 19:57:23.395119 12993 net.cpp:150] Setting up conv7_2_mbox_conf_flat
I0329 19:57:23.395133 12993 net.cpp:157] Top shape: 8 768 (6144)
I0329 19:57:23.395138 12993 net.cpp:165] Memory required for data: 5735981088
I0329 19:57:23.395145 12993 layer_factory.hpp:77] Creating layer conv7_2_mbox_priorbox
I0329 19:57:23.395157 12993 net.cpp:100] Creating Layer conv7_2_mbox_priorbox
I0329 19:57:23.395165 12993 net.cpp:434] conv7_2_mbox_priorbox <- conv7_2_conv7_2_relu_0_split_3
I0329 19:57:23.395174 12993 net.cpp:434] conv7_2_mbox_priorbox <- data_data_0_split_4
I0329 19:57:23.395185 12993 net.cpp:408] conv7_2_mbox_priorbox -> conv7_2_mbox_priorbox
I0329 19:57:23.395223 12993 net.cpp:150] Setting up conv7_2_mbox_priorbox
I0329 19:57:23.395236 12993 net.cpp:157] Top shape: 1 2 1536 (3072)
I0329 19:57:23.395242 12993 net.cpp:165] Memory required for data: 5735993376
I0329 19:57:23.395249 12993 layer_factory.hpp:77] Creating layer conv8_2_mbox_loc
I0329 19:57:23.395265 12993 net.cpp:100] Creating Layer conv8_2_mbox_loc
I0329 19:57:23.395273 12993 net.cpp:434] conv8_2_mbox_loc <- conv8_2_conv8_2_relu_0_split_1
I0329 19:57:23.395285 12993 net.cpp:408] conv8_2_mbox_loc -> conv8_2_mbox_loc
I0329 19:57:23.395887 12993 net.cpp:150] Setting up conv8_2_mbox_loc
I0329 19:57:23.395902 12993 net.cpp:157] Top shape: 8 16 6 6 (4608)
I0329 19:57:23.395910 12993 net.cpp:165] Memory required for data: 5736011808
I0329 19:57:23.395936 12993 layer_factory.hpp:77] Creating layer conv8_2_mbox_loc_perm
I0329 19:57:23.395949 12993 net.cpp:100] Creating Layer conv8_2_mbox_loc_perm
I0329 19:57:23.395957 12993 net.cpp:434] conv8_2_mbox_loc_perm <- conv8_2_mbox_loc
I0329 19:57:23.395968 12993 net.cpp:408] conv8_2_mbox_loc_perm -> conv8_2_mbox_loc_perm
I0329 19:57:23.396111 12993 net.cpp:150] Setting up conv8_2_mbox_loc_perm
I0329 19:57:23.396124 12993 net.cpp:157] Top shape: 8 6 6 16 (4608)
I0329 19:57:23.396131 12993 net.cpp:165] Memory required for data: 5736030240
I0329 19:57:23.396138 12993 layer_factory.hpp:77] Creating layer conv8_2_mbox_loc_flat
I0329 19:57:23.396149 12993 net.cpp:100] Creating Layer conv8_2_mbox_loc_flat
I0329 19:57:23.396157 12993 net.cpp:434] conv8_2_mbox_loc_flat <- conv8_2_mbox_loc_perm
I0329 19:57:23.396167 12993 net.cpp:408] conv8_2_mbox_loc_flat -> conv8_2_mbox_loc_flat
I0329 19:57:23.396203 12993 net.cpp:150] Setting up conv8_2_mbox_loc_flat
I0329 19:57:23.396215 12993 net.cpp:157] Top shape: 8 576 (4608)
I0329 19:57:23.396221 12993 net.cpp:165] Memory required for data: 5736048672
I0329 19:57:23.396229 12993 layer_factory.hpp:77] Creating layer conv8_2_mbox_conf
I0329 19:57:23.396245 12993 net.cpp:100] Creating Layer conv8_2_mbox_conf
I0329 19:57:23.396252 12993 net.cpp:434] conv8_2_mbox_conf <- conv8_2_conv8_2_relu_0_split_2
I0329 19:57:23.396265 12993 net.cpp:408] conv8_2_mbox_conf -> conv8_2_mbox_conf
I0329 19:57:23.396772 12993 net.cpp:150] Setting up conv8_2_mbox_conf
I0329 19:57:23.396796 12993 net.cpp:157] Top shape: 8 8 6 6 (2304)
I0329 19:57:23.396811 12993 net.cpp:165] Memory required for data: 5736057888
I0329 19:57:23.396833 12993 layer_factory.hpp:77] Creating layer conv8_2_mbox_conf_perm
I0329 19:57:23.396852 12993 net.cpp:100] Creating Layer conv8_2_mbox_conf_perm
I0329 19:57:23.396867 12993 net.cpp:434] conv8_2_mbox_conf_perm <- conv8_2_mbox_conf
I0329 19:57:23.396886 12993 net.cpp:408] conv8_2_mbox_conf_perm -> conv8_2_mbox_conf_perm
I0329 19:57:23.397024 12993 net.cpp:150] Setting up conv8_2_mbox_conf_perm
I0329 19:57:23.397045 12993 net.cpp:157] Top shape: 8 6 6 8 (2304)
I0329 19:57:23.397059 12993 net.cpp:165] Memory required for data: 5736067104
I0329 19:57:23.397073 12993 layer_factory.hpp:77] Creating layer conv8_2_mbox_conf_flat
I0329 19:57:23.397092 12993 net.cpp:100] Creating Layer conv8_2_mbox_conf_flat
I0329 19:57:23.397106 12993 net.cpp:434] conv8_2_mbox_conf_flat <- conv8_2_mbox_conf_perm
I0329 19:57:23.397126 12993 net.cpp:408] conv8_2_mbox_conf_flat -> conv8_2_mbox_conf_flat
I0329 19:57:23.397172 12993 net.cpp:150] Setting up conv8_2_mbox_conf_flat
I0329 19:57:23.397192 12993 net.cpp:157] Top shape: 8 288 (2304)
I0329 19:57:23.397205 12993 net.cpp:165] Memory required for data: 5736076320
I0329 19:57:23.397219 12993 layer_factory.hpp:77] Creating layer conv8_2_mbox_priorbox
I0329 19:57:23.397241 12993 net.cpp:100] Creating Layer conv8_2_mbox_priorbox
I0329 19:57:23.397254 12993 net.cpp:434] conv8_2_mbox_priorbox <- conv8_2_conv8_2_relu_0_split_3
I0329 19:57:23.397270 12993 net.cpp:434] conv8_2_mbox_priorbox <- data_data_0_split_5
I0329 19:57:23.397290 12993 net.cpp:408] conv8_2_mbox_priorbox -> conv8_2_mbox_priorbox
I0329 19:57:23.397336 12993 net.cpp:150] Setting up conv8_2_mbox_priorbox
I0329 19:57:23.397351 12993 net.cpp:157] Top shape: 1 2 576 (1152)
I0329 19:57:23.397357 12993 net.cpp:165] Memory required for data: 5736080928
I0329 19:57:23.397364 12993 layer_factory.hpp:77] Creating layer conv9_2_mbox_loc
I0329 19:57:23.397380 12993 net.cpp:100] Creating Layer conv9_2_mbox_loc
I0329 19:57:23.397388 12993 net.cpp:434] conv9_2_mbox_loc <- conv9_2_conv9_2_relu_0_split_0
I0329 19:57:23.397400 12993 net.cpp:408] conv9_2_mbox_loc -> conv9_2_mbox_loc
I0329 19:57:23.398005 12993 net.cpp:150] Setting up conv9_2_mbox_loc
I0329 19:57:23.398021 12993 net.cpp:157] Top shape: 8 16 4 4 (2048)
I0329 19:57:23.398027 12993 net.cpp:165] Memory required for data: 5736089120
I0329 19:57:23.398039 12993 layer_factory.hpp:77] Creating layer conv9_2_mbox_loc_perm
I0329 19:57:23.398051 12993 net.cpp:100] Creating Layer conv9_2_mbox_loc_perm
I0329 19:57:23.398058 12993 net.cpp:434] conv9_2_mbox_loc_perm <- conv9_2_mbox_loc
I0329 19:57:23.398069 12993 net.cpp:408] conv9_2_mbox_loc_perm -> conv9_2_mbox_loc_perm
I0329 19:57:23.398193 12993 net.cpp:150] Setting up conv9_2_mbox_loc_perm
I0329 19:57:23.398222 12993 net.cpp:157] Top shape: 8 4 4 16 (2048)
I0329 19:57:23.398229 12993 net.cpp:165] Memory required for data: 5736097312
I0329 19:57:23.398236 12993 layer_factory.hpp:77] Creating layer conv9_2_mbox_loc_flat
I0329 19:57:23.398247 12993 net.cpp:100] Creating Layer conv9_2_mbox_loc_flat
I0329 19:57:23.398255 12993 net.cpp:434] conv9_2_mbox_loc_flat <- conv9_2_mbox_loc_perm
I0329 19:57:23.398265 12993 net.cpp:408] conv9_2_mbox_loc_flat -> conv9_2_mbox_loc_flat
I0329 19:57:23.398301 12993 net.cpp:150] Setting up conv9_2_mbox_loc_flat
I0329 19:57:23.398313 12993 net.cpp:157] Top shape: 8 256 (2048)
I0329 19:57:23.398319 12993 net.cpp:165] Memory required for data: 5736105504
I0329 19:57:23.398327 12993 layer_factory.hpp:77] Creating layer conv9_2_mbox_conf
I0329 19:57:23.398352 12993 net.cpp:100] Creating Layer conv9_2_mbox_conf
I0329 19:57:23.398365 12993 net.cpp:434] conv9_2_mbox_conf <- conv9_2_conv9_2_relu_0_split_1
I0329 19:57:23.398378 12993 net.cpp:408] conv9_2_mbox_conf -> conv9_2_mbox_conf
I0329 19:57:23.398874 12993 net.cpp:150] Setting up conv9_2_mbox_conf
I0329 19:57:23.398895 12993 net.cpp:157] Top shape: 8 8 4 4 (1024)
I0329 19:57:23.398910 12993 net.cpp:165] Memory required for data: 5736109600
I0329 19:57:23.398932 12993 layer_factory.hpp:77] Creating layer conv9_2_mbox_conf_perm
I0329 19:57:23.398952 12993 net.cpp:100] Creating Layer conv9_2_mbox_conf_perm
I0329 19:57:23.398964 12993 net.cpp:434] conv9_2_mbox_conf_perm <- conv9_2_mbox_conf
I0329 19:57:23.398984 12993 net.cpp:408] conv9_2_mbox_conf_perm -> conv9_2_mbox_conf_perm
I0329 19:57:23.399121 12993 net.cpp:150] Setting up conv9_2_mbox_conf_perm
I0329 19:57:23.399142 12993 net.cpp:157] Top shape: 8 4 4 8 (1024)
I0329 19:57:23.399155 12993 net.cpp:165] Memory required for data: 5736113696
I0329 19:57:23.399170 12993 layer_factory.hpp:77] Creating layer conv9_2_mbox_conf_flat
I0329 19:57:23.399190 12993 net.cpp:100] Creating Layer conv9_2_mbox_conf_flat
I0329 19:57:23.399204 12993 net.cpp:434] conv9_2_mbox_conf_flat <- conv9_2_mbox_conf_perm
I0329 19:57:23.399224 12993 net.cpp:408] conv9_2_mbox_conf_flat -> conv9_2_mbox_conf_flat
I0329 19:57:23.399269 12993 net.cpp:150] Setting up conv9_2_mbox_conf_flat
I0329 19:57:23.399288 12993 net.cpp:157] Top shape: 8 128 (1024)
I0329 19:57:23.399302 12993 net.cpp:165] Memory required for data: 5736117792
I0329 19:57:23.399315 12993 layer_factory.hpp:77] Creating layer conv9_2_mbox_priorbox
I0329 19:57:23.399336 12993 net.cpp:100] Creating Layer conv9_2_mbox_priorbox
I0329 19:57:23.399351 12993 net.cpp:434] conv9_2_mbox_priorbox <- conv9_2_conv9_2_relu_0_split_2
I0329 19:57:23.399369 12993 net.cpp:434] conv9_2_mbox_priorbox <- data_data_0_split_6
I0329 19:57:23.399389 12993 net.cpp:408] conv9_2_mbox_priorbox -> conv9_2_mbox_priorbox
I0329 19:57:23.399435 12993 net.cpp:150] Setting up conv9_2_mbox_priorbox
I0329 19:57:23.399456 12993 net.cpp:157] Top shape: 1 2 256 (512)
I0329 19:57:23.399468 12993 net.cpp:165] Memory required for data: 5736119840
I0329 19:57:23.399484 12993 layer_factory.hpp:77] Creating layer mbox_loc
I0329 19:57:23.399507 12993 net.cpp:100] Creating Layer mbox_loc
I0329 19:57:23.399519 12993 net.cpp:434] mbox_loc <- conv4_3_norm_mbox_loc_flat
I0329 19:57:23.399536 12993 net.cpp:434] mbox_loc <- fc7_mbox_loc_flat
I0329 19:57:23.399552 12993 net.cpp:434] mbox_loc <- conv6_2_mbox_loc_flat
I0329 19:57:23.399567 12993 net.cpp:434] mbox_loc <- conv7_2_mbox_loc_flat
I0329 19:57:23.399587 12993 net.cpp:434] mbox_loc <- conv8_2_mbox_loc_flat
I0329 19:57:23.399601 12993 net.cpp:434] mbox_loc <- conv9_2_mbox_loc_flat
I0329 19:57:23.399621 12993 net.cpp:408] mbox_loc -> mbox_loc
I0329 19:57:23.399670 12993 net.cpp:150] Setting up mbox_loc
I0329 19:57:23.399690 12993 net.cpp:157] Top shape: 8 98624 (788992)
I0329 19:57:23.399704 12993 net.cpp:165] Memory required for data: 5739275808
I0329 19:57:23.399718 12993 layer_factory.hpp:77] Creating layer mbox_conf
I0329 19:57:23.399739 12993 net.cpp:100] Creating Layer mbox_conf
I0329 19:57:23.399754 12993 net.cpp:434] mbox_conf <- conv4_3_norm_mbox_conf_flat
I0329 19:57:23.399788 12993 net.cpp:434] mbox_conf <- fc7_mbox_conf_flat
I0329 19:57:23.399806 12993 net.cpp:434] mbox_conf <- conv6_2_mbox_conf_flat
I0329 19:57:23.399823 12993 net.cpp:434] mbox_conf <- conv7_2_mbox_conf_flat
I0329 19:57:23.399838 12993 net.cpp:434] mbox_conf <- conv8_2_mbox_conf_flat
I0329 19:57:23.399855 12993 net.cpp:434] mbox_conf <- conv9_2_mbox_conf_flat
I0329 19:57:23.399875 12993 net.cpp:408] mbox_conf -> mbox_conf
I0329 19:57:23.399926 12993 net.cpp:150] Setting up mbox_conf
I0329 19:57:23.399945 12993 net.cpp:157] Top shape: 8 49312 (394496)
I0329 19:57:23.399960 12993 net.cpp:165] Memory required for data: 5740853792
I0329 19:57:23.399974 12993 layer_factory.hpp:77] Creating layer mbox_priorbox
I0329 19:57:23.399996 12993 net.cpp:100] Creating Layer mbox_priorbox
I0329 19:57:23.400008 12993 net.cpp:434] mbox_priorbox <- conv4_3_norm_mbox_priorbox
I0329 19:57:23.400024 12993 net.cpp:434] mbox_priorbox <- fc7_mbox_priorbox
I0329 19:57:23.400039 12993 net.cpp:434] mbox_priorbox <- conv6_2_mbox_priorbox
I0329 19:57:23.400054 12993 net.cpp:434] mbox_priorbox <- conv7_2_mbox_priorbox
I0329 19:57:23.400068 12993 net.cpp:434] mbox_priorbox <- conv8_2_mbox_priorbox
I0329 19:57:23.400084 12993 net.cpp:434] mbox_priorbox <- conv9_2_mbox_priorbox
I0329 19:57:23.400102 12993 net.cpp:408] mbox_priorbox -> mbox_priorbox
I0329 19:57:23.400148 12993 net.cpp:150] Setting up mbox_priorbox
I0329 19:57:23.400168 12993 net.cpp:157] Top shape: 1 2 98624 (197248)
I0329 19:57:23.400182 12993 net.cpp:165] Memory required for data: 5741642784
I0329 19:57:23.400197 12993 layer_factory.hpp:77] Creating layer mbox_conf_reshape
I0329 19:57:23.400228 12993 net.cpp:100] Creating Layer mbox_conf_reshape
I0329 19:57:23.400240 12993 net.cpp:434] mbox_conf_reshape <- mbox_conf
I0329 19:57:23.400261 12993 net.cpp:408] mbox_conf_reshape -> mbox_conf_reshape
I0329 19:57:23.400353 12993 net.cpp:150] Setting up mbox_conf_reshape
I0329 19:57:23.400374 12993 net.cpp:157] Top shape: 8 24656 2 (394496)
I0329 19:57:23.400388 12993 net.cpp:165] Memory required for data: 5743220768
I0329 19:57:23.400403 12993 layer_factory.hpp:77] Creating layer mbox_conf_softmax
I0329 19:57:23.400424 12993 net.cpp:100] Creating Layer mbox_conf_softmax
I0329 19:57:23.400436 12993 net.cpp:434] mbox_conf_softmax <- mbox_conf_reshape
I0329 19:57:23.400456 12993 net.cpp:408] mbox_conf_softmax -> mbox_conf_softmax
I0329 19:57:23.400557 12993 net.cpp:150] Setting up mbox_conf_softmax
I0329 19:57:23.400573 12993 net.cpp:157] Top shape: 8 24656 2 (394496)
I0329 19:57:23.400606 12993 net.cpp:165] Memory required for data: 5744798752
I0329 19:57:23.400624 12993 layer_factory.hpp:77] Creating layer mbox_conf_flatten
I0329 19:57:23.400645 12993 net.cpp:100] Creating Layer mbox_conf_flatten
I0329 19:57:23.400658 12993 net.cpp:434] mbox_conf_flatten <- mbox_conf_softmax
I0329 19:57:23.400678 12993 net.cpp:408] mbox_conf_flatten -> mbox_conf_flatten
I0329 19:57:23.400727 12993 net.cpp:150] Setting up mbox_conf_flatten
I0329 19:57:23.400748 12993 net.cpp:157] Top shape: 8 49312 (394496)
I0329 19:57:23.400761 12993 net.cpp:165] Memory required for data: 5746376736
I0329 19:57:23.400776 12993 layer_factory.hpp:77] Creating layer detection_out
I0329 19:57:23.400818 12993 net.cpp:100] Creating Layer detection_out
I0329 19:57:23.400833 12993 net.cpp:434] detection_out <- mbox_loc
I0329 19:57:23.400851 12993 net.cpp:434] detection_out <- mbox_conf_flatten
I0329 19:57:23.400866 12993 net.cpp:434] detection_out <- mbox_priorbox
I0329 19:57:23.400888 12993 net.cpp:408] detection_out -> detection_out
I0329 19:57:23.404443 12993 net.cpp:150] Setting up detection_out
I0329 19:57:23.404467 12993 net.cpp:157] Top shape: 1 1 1 7 (7)
I0329 19:57:23.404481 12993 net.cpp:165] Memory required for data: 5746376764
I0329 19:57:23.404498 12993 layer_factory.hpp:77] Creating layer detection_eval
I0329 19:57:23.404525 12993 net.cpp:100] Creating Layer detection_eval
I0329 19:57:23.404538 12993 net.cpp:434] detection_eval <- detection_out
I0329 19:57:23.404556 12993 net.cpp:434] detection_eval <- label
I0329 19:57:23.404598 12993 net.cpp:408] detection_eval -> detection_eval
I0329 19:57:23.406805 12993 net.cpp:150] Setting up detection_eval
I0329 19:57:23.406829 12993 net.cpp:157] Top shape: 1 1 2 5 (10)
I0329 19:57:23.406843 12993 net.cpp:165] Memory required for data: 5746376804
I0329 19:57:23.406857 12993 net.cpp:228] detection_eval does not need backward computation.
I0329 19:57:23.406873 12993 net.cpp:228] detection_out does not need backward computation.
I0329 19:57:23.406888 12993 net.cpp:228] mbox_conf_flatten does not need backward computation.
I0329 19:57:23.406901 12993 net.cpp:228] mbox_conf_softmax does not need backward computation.
…
